{"class_name": "Functional", "config": {"name": "model_1", "trainable": true, "layers": [{"class_name": "InputLayer", "config": {"batch_input_shape": [null, 25, 224, 224, 3], "dtype": "float32", "sparse": false, "ragged": false, "name": "input_2"}, "name": "input_2", "inbound_nodes": []}, {"class_name": "Lambda", "config": {"name": "data_fast", "trainable": true, "dtype": "float32", "function": ["4wIAAAAAAAAAAAAAAAIAAAAHAAAAQwAAAHMoAAAAfABkAGQAhQJkAGQAfAGFA2QAZACFAmQAZACF\nAmQAZACFAmYFGQBTACkBTqkAKQLaAXjaBnN0cmlkZXIBAAAAcgEAAAD6MUM6L1VzZXJzL1RIRSBH\nQU1FUi9EZXNrdG9wL0NfMS9tb2RlbHMvc2xvd2Zhc3QucHnaCWRhdGFsYXllciUAAABzAgAAACgB\n", null, null], "function_type": "lambda", "module": "__main__", "output_shape": null, "output_shape_type": "raw", "output_shape_module": null, "arguments": {"stride": 2}}, "name": "data_fast", "inbound_nodes": [[["input_2", 0, 0, {}]]]}, {"class_name": "Lambda", "config": {"name": "data_slow", "trainable": true, "dtype": "float32", "function": ["4wIAAAAAAAAAAAAAAAIAAAAHAAAAQwAAAHMoAAAAfABkAGQAhQJkAGQAfAGFA2QAZACFAmQAZACF\nAmQAZACFAmYFGQBTACkBTqkAKQLaAXjaBnN0cmlkZXIBAAAAcgEAAAD6MUM6L1VzZXJzL1RIRSBH\nQU1FUi9EZXNrdG9wL0NfMS9tb2RlbHMvc2xvd2Zhc3QucHnaCWRhdGFsYXllciUAAABzAgAAACgB\n", null, null], "function_type": "lambda", "module": "__main__", "output_shape": null, "output_shape_type": "raw", "output_shape_module": null, "arguments": {"stride": 16}}, "name": "data_slow", "inbound_nodes": [[["input_2", 0, 0, {}]]]}, {"class_name": "Sequential", "config": {"name": "sequential_74", "layers": [{"class_name": "InputLayer", "config": {"batch_input_shape": [null, null, null, null, null], "dtype": "float32", "sparse": false, "ragged": false, "name": "conv3d_110_input"}}, {"class_name": "Conv3D", "config": {"name": "conv3d_110", "trainable": true, "dtype": "float32", "filters": 8, "kernel_size": [5, 7, 7], "strides": [1, 2, 2], "padding": "same", "data_format": "channels_last", "dilation_rate": [1, 1, 1], "groups": 1, "activation": "linear", "use_bias": false, "kernel_initializer": {"class_name": "GlorotUniform", "config": {"seed": null}}, "bias_initializer": {"class_name": "Zeros", "config": {}}, "kernel_regularizer": null, "bias_regularizer": null, "activity_regularizer": null, "kernel_constraint": null, "bias_constraint": null}}, {"class_name": "BatchNormalization", "config": {"name": "batch_normalization_106", "trainable": true, "dtype": "float32", "axis": [4], "momentum": 0.99, "epsilon": 0.001, "center": true, "scale": true, "beta_initializer": {"class_name": "Zeros", "config": {}}, "gamma_initializer": {"class_name": "Ones", "config": {}}, "moving_mean_initializer": {"class_name": "Zeros", "config": {}}, "moving_variance_initializer": {"class_name": "Ones", "config": {}}, "beta_regularizer": null, "gamma_regularizer": null, "beta_constraint": null, "gamma_constraint": null}}, {"class_name": "ReLU", "config": {"name": "re_lu_98", "trainable": true, "dtype": "float32", "max_value": null, "negative_slope": 0.0, "threshold": 0.0}}]}, "name": "sequential_74", "inbound_nodes": [[["data_fast", 0, 0, {}]]]}, {"class_name": "Sequential", "config": {"name": "sequential_111", "layers": [{"class_name": "InputLayer", "config": {"batch_input_shape": [null, null, null, null, null], "dtype": "float32", "sparse": false, "ragged": false, "name": "conv3d_167_input"}}, {"class_name": "Conv3D", "config": {"name": "conv3d_167", "trainable": true, "dtype": "float32", "filters": 64, "kernel_size": [1, 7, 7], "strides": [1, 2, 2], "padding": "same", "data_format": "channels_last", "dilation_rate": [1, 1, 1], "groups": 1, "activation": "linear", "use_bias": false, "kernel_initializer": {"class_name": "GlorotUniform", "config": {"seed": null}}, "bias_initializer": {"class_name": "Zeros", "config": {}}, "kernel_regularizer": null, "bias_regularizer": null, "activity_regularizer": null, "kernel_constraint": null, "bias_constraint": null}}, {"class_name": "BatchNormalization", "config": {"name": "batch_normalization_159", "trainable": true, "dtype": "float32", "axis": [4], "momentum": 0.99, "epsilon": 0.001, "center": true, "scale": true, "beta_initializer": {"class_name": "Zeros", "config": {}}, "gamma_initializer": {"class_name": "Ones", "config": {}}, "moving_mean_initializer": {"class_name": "Zeros", "config": {}}, "moving_variance_initializer": {"class_name": "Ones", "config": {}}, "beta_regularizer": null, "gamma_regularizer": null, "beta_constraint": null, "gamma_constraint": null}}, {"class_name": "ReLU", "config": {"name": "re_lu_147", "trainable": true, "dtype": "float32", "max_value": null, "negative_slope": 0.0, "threshold": 0.0}}]}, "name": "sequential_111", "inbound_nodes": [[["data_slow", 0, 0, {}]]]}, {"class_name": "MaxPooling3D", "config": {"name": "max_pooling3d_2", "trainable": true, "dtype": "float32", "pool_size": [1, 3, 3], "padding": "same", "strides": [1, 2, 2], "data_format": "channels_last"}, "name": "max_pooling3d_2", "inbound_nodes": [[["sequential_74", 1, 0, {}]]]}, {"class_name": "MaxPooling3D", "config": {"name": "max_pooling3d_3", "trainable": true, "dtype": "float32", "pool_size": [1, 3, 3], "padding": "same", "strides": [1, 2, 2], "data_format": "channels_last"}, "name": "max_pooling3d_3", "inbound_nodes": [[["sequential_111", 1, 0, {}]]]}, {"class_name": "Conv3D", "config": {"name": "conv3d_111", "trainable": true, "dtype": "float32", "filters": 16, "kernel_size": [5, 1, 1], "strides": [8, 1, 1], "padding": "same", "data_format": "channels_last", "dilation_rate": [1, 1, 1], "groups": 1, "activation": "linear", "use_bias": false, "kernel_initializer": {"class_name": "GlorotUniform", "config": {"seed": null}}, "bias_initializer": {"class_name": "Zeros", "config": {}}, "kernel_regularizer": null, "bias_regularizer": null, "activity_regularizer": null, "kernel_constraint": null, "bias_constraint": null}, "name": "conv3d_111", "inbound_nodes": [[["max_pooling3d_2", 0, 0, {}]]]}, {"class_name": "Concatenate", "config": {"name": "concatenate_5", "trainable": true, "dtype": "float32", "axis": -1}, "name": "concatenate_5", "inbound_nodes": [[["max_pooling3d_3", 0, 0, {}], ["conv3d_111", 0, 0, {}]]]}, {"class_name": "Sequential", "config": {"name": "sequential_76", "layers": [{"class_name": "InputLayer", "config": {"batch_input_shape": [null, null, null, null, 8], "dtype": "float32", "sparse": false, "ragged": false, "name": "conv3d_113_input"}}, {"class_name": "Conv3D", "config": {"name": "conv3d_113", "trainable": true, "dtype": "float32", "filters": 8, "kernel_size": [3, 1, 1], "strides": [1, 1, 1], "padding": "same", "data_format": "channels_last", "dilation_rate": [1, 1, 1], "groups": 1, "activation": "linear", "use_bias": false, "kernel_initializer": {"class_name": "GlorotUniform", "config": {"seed": null}}, "bias_initializer": {"class_name": "Zeros", "config": {}}, "kernel_regularizer": null, "bias_regularizer": null, "activity_regularizer": null, "kernel_constraint": null, "bias_constraint": null}}, {"class_name": "BatchNormalization", "config": {"name": "batch_normalization_108", "trainable": true, "dtype": "float32", "axis": [4], "momentum": 0.99, "epsilon": 0.001, "center": true, "scale": true, "beta_initializer": {"class_name": "Zeros", "config": {}}, "gamma_initializer": {"class_name": "Ones", "config": {}}, "moving_mean_initializer": {"class_name": "Zeros", "config": {}}, "moving_variance_initializer": {"class_name": "Ones", "config": {}}, "beta_regularizer": null, "gamma_regularizer": null, "beta_constraint": null, "gamma_constraint": null}}, {"class_name": "ReLU", "config": {"name": "re_lu_99", "trainable": true, "dtype": "float32", "max_value": null, "negative_slope": 0.0, "threshold": 0.0}}]}, "name": "sequential_76", "inbound_nodes": [[["max_pooling3d_2", 0, 0, {}]]]}, {"class_name": "Sequential", "config": {"name": "sequential_113", "layers": [{"class_name": "InputLayer", "config": {"batch_input_shape": [null, null, null, null, 80], "dtype": "float32", "sparse": false, "ragged": false, "name": "conv3d_169_input"}}, {"class_name": "Conv3D", "config": {"name": "conv3d_169", "trainable": true, "dtype": "float32", "filters": 64, "kernel_size": [1, 1, 1], "strides": [1, 1, 1], "padding": "same", "data_format": "channels_last", "dilation_rate": [1, 1, 1], "groups": 1, "activation": "linear", "use_bias": false, "kernel_initializer": {"class_name": "GlorotUniform", "config": {"seed": null}}, "bias_initializer": {"class_name": "Zeros", "config": {}}, "kernel_regularizer": null, "bias_regularizer": null, "activity_regularizer": null, "kernel_constraint": null, "bias_constraint": null}}, {"class_name": "BatchNormalization", "config": {"name": "batch_normalization_161", "trainable": true, "dtype": "float32", "axis": [4], "momentum": 0.99, "epsilon": 0.001, "center": true, "scale": true, "beta_initializer": {"class_name": "Zeros", "config": {}}, "gamma_initializer": {"class_name": "Ones", "config": {}}, "moving_mean_initializer": {"class_name": "Zeros", "config": {}}, "moving_variance_initializer": {"class_name": "Ones", "config": {}}, "beta_regularizer": null, "gamma_regularizer": null, "beta_constraint": null, "gamma_constraint": null}}, {"class_name": "ReLU", "config": {"name": "re_lu_148", "trainable": true, "dtype": "float32", "max_value": null, "negative_slope": 0.0, "threshold": 0.0}}]}, "name": "sequential_113", "inbound_nodes": [[["concatenate_5", 0, 0, {}]]]}, {"class_name": "Sequential", "config": {"name": "sequential_77", "layers": [{"class_name": "InputLayer", "config": {"batch_input_shape": [null, null, null, null, 8], "dtype": "float32", "sparse": false, "ragged": false, "name": "conv3d_114_input"}}, {"class_name": "Conv3D", "config": {"name": "conv3d_114", "trainable": true, "dtype": "float32", "filters": 8, "kernel_size": [1, 3, 3], "strides": [1, 1, 1], "padding": "same", "data_format": "channels_last", "dilation_rate": [1, 1, 1], "groups": 1, "activation": "linear", "use_bias": false, "kernel_initializer": {"class_name": "GlorotUniform", "config": {"seed": null}}, "bias_initializer": {"class_name": "Zeros", "config": {}}, "kernel_regularizer": null, "bias_regularizer": null, "activity_regularizer": null, "kernel_constraint": null, "bias_constraint": null}}, {"class_name": "BatchNormalization", "config": {"name": "batch_normalization_109", "trainable": true, "dtype": "float32", "axis": [4], "momentum": 0.99, "epsilon": 0.001, "center": true, "scale": true, "beta_initializer": {"class_name": "Zeros", "config": {}}, "gamma_initializer": {"class_name": "Ones", "config": {}}, "moving_mean_initializer": {"class_name": "Zeros", "config": {}}, "moving_variance_initializer": {"class_name": "Ones", "config": {}}, "beta_regularizer": null, "gamma_regularizer": null, "beta_constraint": null, "gamma_constraint": null}}, {"class_name": "ReLU", "config": {"name": "re_lu_100", "trainable": true, "dtype": "float32", "max_value": null, "negative_slope": 0.0, "threshold": 0.0}}]}, "name": "sequential_77", "inbound_nodes": [[["sequential_76", 1, 0, {}]]]}, {"class_name": "Sequential", "config": {"name": "sequential_114", "layers": [{"class_name": "InputLayer", "config": {"batch_input_shape": [null, null, null, null, 64], "dtype": "float32", "sparse": false, "ragged": false, "name": "conv3d_170_input"}}, {"class_name": "Conv3D", "config": {"name": "conv3d_170", "trainable": true, "dtype": "float32", "filters": 64, "kernel_size": [1, 3, 3], "strides": [1, 1, 1], "padding": "same", "data_format": "channels_last", "dilation_rate": [1, 1, 1], "groups": 1, "activation": "linear", "use_bias": false, "kernel_initializer": {"class_name": "GlorotUniform", "config": {"seed": null}}, "bias_initializer": {"class_name": "Zeros", "config": {}}, "kernel_regularizer": null, "bias_regularizer": null, "activity_regularizer": null, "kernel_constraint": null, "bias_constraint": null}}, {"class_name": "BatchNormalization", "config": {"name": "batch_normalization_162", "trainable": true, "dtype": "float32", "axis": [4], "momentum": 0.99, "epsilon": 0.001, "center": true, "scale": true, "beta_initializer": {"class_name": "Zeros", "config": {}}, "gamma_initializer": {"class_name": "Ones", "config": {}}, "moving_mean_initializer": {"class_name": "Zeros", "config": {}}, "moving_variance_initializer": {"class_name": "Ones", "config": {}}, "beta_regularizer": null, "gamma_regularizer": null, "beta_constraint": null, "gamma_constraint": null}}, {"class_name": "ReLU", "config": {"name": "re_lu_149", "trainable": true, "dtype": "float32", "max_value": null, "negative_slope": 0.0, "threshold": 0.0}}]}, "name": "sequential_114", "inbound_nodes": [[["sequential_113", 1, 0, {}]]]}, {"class_name": "Conv3D", "config": {"name": "conv3d_115", "trainable": true, "dtype": "float32", "filters": 32, "kernel_size": [1, 1, 1], "strides": [1, 1, 1], "padding": "valid", "data_format": "channels_last", "dilation_rate": [1, 1, 1], "groups": 1, "activation": "linear", "use_bias": false, "kernel_initializer": {"class_name": "GlorotUniform", "config": {"seed": null}}, "bias_initializer": {"class_name": "Zeros", "config": {}}, "kernel_regularizer": null, "bias_regularizer": null, "activity_regularizer": null, "kernel_constraint": null, "bias_constraint": null}, "name": "conv3d_115", "inbound_nodes": [[["sequential_77", 1, 0, {}]]]}, {"class_name": "Conv3D", "config": {"name": "conv3d_171", "trainable": true, "dtype": "float32", "filters": 256, "kernel_size": [1, 1, 1], "strides": [1, 1, 1], "padding": "valid", "data_format": "channels_last", "dilation_rate": [1, 1, 1], "groups": 1, "activation": "linear", "use_bias": false, "kernel_initializer": {"class_name": "GlorotUniform", "config": {"seed": null}}, "bias_initializer": {"class_name": "Zeros", "config": {}}, "kernel_regularizer": null, "bias_regularizer": null, "activity_regularizer": null, "kernel_constraint": null, "bias_constraint": null}, "name": "conv3d_171", "inbound_nodes": [[["sequential_114", 1, 0, {}]]]}, {"class_name": "BatchNormalization", "config": {"name": "batch_normalization_110", "trainable": true, "dtype": "float32", "axis": [4], "momentum": 0.99, "epsilon": 0.001, "center": true, "scale": true, "beta_initializer": {"class_name": "Zeros", "config": {}}, "gamma_initializer": {"class_name": "Ones", "config": {}}, "moving_mean_initializer": {"class_name": "Zeros", "config": {}}, "moving_variance_initializer": {"class_name": "Ones", "config": {}}, "beta_regularizer": null, "gamma_regularizer": null, "beta_constraint": null, "gamma_constraint": null}, "name": "batch_normalization_110", "inbound_nodes": [[["conv3d_115", 0, 0, {}]]]}, {"class_name": "Sequential", "config": {"name": "sequential_75", "layers": [{"class_name": "InputLayer", "config": {"batch_input_shape": [null, null, null, null, 8], "dtype": "float32", "sparse": false, "ragged": false, "name": "conv3d_112_input"}}, {"class_name": "Conv3D", "config": {"name": "conv3d_112", "trainable": true, "dtype": "float32", "filters": 32, "kernel_size": [1, 1, 1], "strides": [1, 1, 1], "padding": "valid", "data_format": "channels_last", "dilation_rate": [1, 1, 1], "groups": 1, "activation": "linear", "use_bias": false, "kernel_initializer": {"class_name": "GlorotUniform", "config": {"seed": null}}, "bias_initializer": {"class_name": "Zeros", "config": {}}, "kernel_regularizer": null, "bias_regularizer": null, "activity_regularizer": null, "kernel_constraint": null, "bias_constraint": null}}, {"class_name": "BatchNormalization", "config": {"name": "batch_normalization_107", "trainable": true, "dtype": "float32", "axis": [4], "momentum": 0.99, "epsilon": 0.001, "center": true, "scale": true, "beta_initializer": {"class_name": "Zeros", "config": {}}, "gamma_initializer": {"class_name": "Ones", "config": {}}, "moving_mean_initializer": {"class_name": "Zeros", "config": {}}, "moving_variance_initializer": {"class_name": "Ones", "config": {}}, "beta_regularizer": null, "gamma_regularizer": null, "beta_constraint": null, "gamma_constraint": null}}]}, "name": "sequential_75", "inbound_nodes": [[["max_pooling3d_2", 0, 0, {}]]]}, {"class_name": "BatchNormalization", "config": {"name": "batch_normalization_163", "trainable": true, "dtype": "float32", "axis": [4], "momentum": 0.99, "epsilon": 0.001, "center": true, "scale": true, "beta_initializer": {"class_name": "Zeros", "config": {}}, "gamma_initializer": {"class_name": "Ones", "config": {}}, "moving_mean_initializer": {"class_name": "Zeros", "config": {}}, "moving_variance_initializer": {"class_name": "Ones", "config": {}}, "beta_regularizer": null, "gamma_regularizer": null, "beta_constraint": null, "gamma_constraint": null}, "name": "batch_normalization_163", "inbound_nodes": [[["conv3d_171", 0, 0, {}]]]}, {"class_name": "Sequential", "config": {"name": "sequential_112", "layers": [{"class_name": "InputLayer", "config": {"batch_input_shape": [null, null, null, null, 80], "dtype": "float32", "sparse": false, "ragged": false, "name": "conv3d_168_input"}}, {"class_name": "Conv3D", "config": {"name": "conv3d_168", "trainable": true, "dtype": "float32", "filters": 256, "kernel_size": [1, 1, 1], "strides": [1, 1, 1], "padding": "valid", "data_format": "channels_last", "dilation_rate": [1, 1, 1], "groups": 1, "activation": "linear", "use_bias": false, "kernel_initializer": {"class_name": "GlorotUniform", "config": {"seed": null}}, "bias_initializer": {"class_name": "Zeros", "config": {}}, "kernel_regularizer": null, "bias_regularizer": null, "activity_regularizer": null, "kernel_constraint": null, "bias_constraint": null}}, {"class_name": "BatchNormalization", "config": {"name": "batch_normalization_160", "trainable": true, "dtype": "float32", "axis": [4], "momentum": 0.99, "epsilon": 0.001, "center": true, "scale": true, "beta_initializer": {"class_name": "Zeros", "config": {}}, "gamma_initializer": {"class_name": "Ones", "config": {}}, "moving_mean_initializer": {"class_name": "Zeros", "config": {}}, "moving_variance_initializer": {"class_name": "Ones", "config": {}}, "beta_regularizer": null, "gamma_regularizer": null, "beta_constraint": null, "gamma_constraint": null}}]}, "name": "sequential_112", "inbound_nodes": [[["concatenate_5", 0, 0, {}]]]}, {"class_name": "Add", "config": {"name": "add_32", "trainable": true, "dtype": "float32"}, "name": "add_32", "inbound_nodes": [[["batch_normalization_110", 0, 0, {}], ["sequential_75", 1, 0, {}]]]}, {"class_name": "Add", "config": {"name": "add_48", "trainable": true, "dtype": "float32"}, "name": "add_48", "inbound_nodes": [[["batch_normalization_163", 0, 0, {}], ["sequential_112", 1, 0, {}]]]}, {"class_name": "ReLU", "config": {"name": "re_lu_101", "trainable": true, "dtype": "float32", "max_value": null, "negative_slope": 0.0, "threshold": 0.0}, "name": "re_lu_101", "inbound_nodes": [[["add_32", 0, 0, {}]]]}, {"class_name": "ReLU", "config": {"name": "re_lu_150", "trainable": true, "dtype": "float32", "max_value": null, "negative_slope": 0.0, "threshold": 0.0}, "name": "re_lu_150", "inbound_nodes": [[["add_48", 0, 0, {}]]]}, {"class_name": "Sequential", "config": {"name": "sequential_78", "layers": [{"class_name": "InputLayer", "config": {"batch_input_shape": [null, null, null, null, 32], "dtype": "float32", "sparse": false, "ragged": false, "name": "conv3d_116_input"}}, {"class_name": "Conv3D", "config": {"name": "conv3d_116", "trainable": true, "dtype": "float32", "filters": 8, "kernel_size": [3, 1, 1], "strides": [1, 1, 1], "padding": "same", "data_format": "channels_last", "dilation_rate": [1, 1, 1], "groups": 1, "activation": "linear", "use_bias": false, "kernel_initializer": {"class_name": "GlorotUniform", "config": {"seed": null}}, "bias_initializer": {"class_name": "Zeros", "config": {}}, "kernel_regularizer": null, "bias_regularizer": null, "activity_regularizer": null, "kernel_constraint": null, "bias_constraint": null}}, {"class_name": "BatchNormalization", "config": {"name": "batch_normalization_111", "trainable": true, "dtype": "float32", "axis": [4], "momentum": 0.99, "epsilon": 0.001, "center": true, "scale": true, "beta_initializer": {"class_name": "Zeros", "config": {}}, "gamma_initializer": {"class_name": "Ones", "config": {}}, "moving_mean_initializer": {"class_name": "Zeros", "config": {}}, "moving_variance_initializer": {"class_name": "Ones", "config": {}}, "beta_regularizer": null, "gamma_regularizer": null, "beta_constraint": null, "gamma_constraint": null}}, {"class_name": "ReLU", "config": {"name": "re_lu_102", "trainable": true, "dtype": "float32", "max_value": null, "negative_slope": 0.0, "threshold": 0.0}}]}, "name": "sequential_78", "inbound_nodes": [[["re_lu_101", 0, 0, {}]]]}, {"class_name": "Sequential", "config": {"name": "sequential_115", "layers": [{"class_name": "InputLayer", "config": {"batch_input_shape": [null, null, null, null, 256], "dtype": "float32", "sparse": false, "ragged": false, "name": "conv3d_172_input"}}, {"class_name": "Conv3D", "config": {"name": "conv3d_172", "trainable": true, "dtype": "float32", "filters": 64, "kernel_size": [1, 1, 1], "strides": [1, 1, 1], "padding": "same", "data_format": "channels_last", "dilation_rate": [1, 1, 1], "groups": 1, "activation": "linear", "use_bias": false, "kernel_initializer": {"class_name": "GlorotUniform", "config": {"seed": null}}, "bias_initializer": {"class_name": "Zeros", "config": {}}, "kernel_regularizer": null, "bias_regularizer": null, "activity_regularizer": null, "kernel_constraint": null, "bias_constraint": null}}, {"class_name": "BatchNormalization", "config": {"name": "batch_normalization_164", "trainable": true, "dtype": "float32", "axis": [4], "momentum": 0.99, "epsilon": 0.001, "center": true, "scale": true, "beta_initializer": {"class_name": "Zeros", "config": {}}, "gamma_initializer": {"class_name": "Ones", "config": {}}, "moving_mean_initializer": {"class_name": "Zeros", "config": {}}, "moving_variance_initializer": {"class_name": "Ones", "config": {}}, "beta_regularizer": null, "gamma_regularizer": null, "beta_constraint": null, "gamma_constraint": null}}, {"class_name": "ReLU", "config": {"name": "re_lu_151", "trainable": true, "dtype": "float32", "max_value": null, "negative_slope": 0.0, "threshold": 0.0}}]}, "name": "sequential_115", "inbound_nodes": [[["re_lu_150", 0, 0, {}]]]}, {"class_name": "Sequential", "config": {"name": "sequential_79", "layers": [{"class_name": "InputLayer", "config": {"batch_input_shape": [null, null, null, null, 8], "dtype": "float32", "sparse": false, "ragged": false, "name": "conv3d_117_input"}}, {"class_name": "Conv3D", "config": {"name": "conv3d_117", "trainable": true, "dtype": "float32", "filters": 8, "kernel_size": [1, 3, 3], "strides": [1, 1, 1], "padding": "same", "data_format": "channels_last", "dilation_rate": [1, 1, 1], "groups": 1, "activation": "linear", "use_bias": false, "kernel_initializer": {"class_name": "GlorotUniform", "config": {"seed": null}}, "bias_initializer": {"class_name": "Zeros", "config": {}}, "kernel_regularizer": null, "bias_regularizer": null, "activity_regularizer": null, "kernel_constraint": null, "bias_constraint": null}}, {"class_name": "BatchNormalization", "config": {"name": "batch_normalization_112", "trainable": true, "dtype": "float32", "axis": [4], "momentum": 0.99, "epsilon": 0.001, "center": true, "scale": true, "beta_initializer": {"class_name": "Zeros", "config": {}}, "gamma_initializer": {"class_name": "Ones", "config": {}}, "moving_mean_initializer": {"class_name": "Zeros", "config": {}}, "moving_variance_initializer": {"class_name": "Ones", "config": {}}, "beta_regularizer": null, "gamma_regularizer": null, "beta_constraint": null, "gamma_constraint": null}}, {"class_name": "ReLU", "config": {"name": "re_lu_103", "trainable": true, "dtype": "float32", "max_value": null, "negative_slope": 0.0, "threshold": 0.0}}]}, "name": "sequential_79", "inbound_nodes": [[["sequential_78", 1, 0, {}]]]}, {"class_name": "Sequential", "config": {"name": "sequential_116", "layers": [{"class_name": "InputLayer", "config": {"batch_input_shape": [null, null, null, null, 64], "dtype": "float32", "sparse": false, "ragged": false, "name": "conv3d_173_input"}}, {"class_name": "Conv3D", "config": {"name": "conv3d_173", "trainable": true, "dtype": "float32", "filters": 64, "kernel_size": [1, 3, 3], "strides": [1, 1, 1], "padding": "same", "data_format": "channels_last", "dilation_rate": [1, 1, 1], "groups": 1, "activation": "linear", "use_bias": false, "kernel_initializer": {"class_name": "GlorotUniform", "config": {"seed": null}}, "bias_initializer": {"class_name": "Zeros", "config": {}}, "kernel_regularizer": null, "bias_regularizer": null, "activity_regularizer": null, "kernel_constraint": null, "bias_constraint": null}}, {"class_name": "BatchNormalization", "config": {"name": "batch_normalization_165", "trainable": true, "dtype": "float32", "axis": [4], "momentum": 0.99, "epsilon": 0.001, "center": true, "scale": true, "beta_initializer": {"class_name": "Zeros", "config": {}}, "gamma_initializer": {"class_name": "Ones", "config": {}}, "moving_mean_initializer": {"class_name": "Zeros", "config": {}}, "moving_variance_initializer": {"class_name": "Ones", "config": {}}, "beta_regularizer": null, "gamma_regularizer": null, "beta_constraint": null, "gamma_constraint": null}}, {"class_name": "ReLU", "config": {"name": "re_lu_152", "trainable": true, "dtype": "float32", "max_value": null, "negative_slope": 0.0, "threshold": 0.0}}]}, "name": "sequential_116", "inbound_nodes": [[["sequential_115", 1, 0, {}]]]}, {"class_name": "Conv3D", "config": {"name": "conv3d_118", "trainable": true, "dtype": "float32", "filters": 32, "kernel_size": [1, 1, 1], "strides": [1, 1, 1], "padding": "valid", "data_format": "channels_last", "dilation_rate": [1, 1, 1], "groups": 1, "activation": "linear", "use_bias": false, "kernel_initializer": {"class_name": "GlorotUniform", "config": {"seed": null}}, "bias_initializer": {"class_name": "Zeros", "config": {}}, "kernel_regularizer": null, "bias_regularizer": null, "activity_regularizer": null, "kernel_constraint": null, "bias_constraint": null}, "name": "conv3d_118", "inbound_nodes": [[["sequential_79", 1, 0, {}]]]}, {"class_name": "Conv3D", "config": {"name": "conv3d_174", "trainable": true, "dtype": "float32", "filters": 256, "kernel_size": [1, 1, 1], "strides": [1, 1, 1], "padding": "valid", "data_format": "channels_last", "dilation_rate": [1, 1, 1], "groups": 1, "activation": "linear", "use_bias": false, "kernel_initializer": {"class_name": "GlorotUniform", "config": {"seed": null}}, "bias_initializer": {"class_name": "Zeros", "config": {}}, "kernel_regularizer": null, "bias_regularizer": null, "activity_regularizer": null, "kernel_constraint": null, "bias_constraint": null}, "name": "conv3d_174", "inbound_nodes": [[["sequential_116", 1, 0, {}]]]}, {"class_name": "BatchNormalization", "config": {"name": "batch_normalization_113", "trainable": true, "dtype": "float32", "axis": [4], "momentum": 0.99, "epsilon": 0.001, "center": true, "scale": true, "beta_initializer": {"class_name": "Zeros", "config": {}}, "gamma_initializer": {"class_name": "Ones", "config": {}}, "moving_mean_initializer": {"class_name": "Zeros", "config": {}}, "moving_variance_initializer": {"class_name": "Ones", "config": {}}, "beta_regularizer": null, "gamma_regularizer": null, "beta_constraint": null, "gamma_constraint": null}, "name": "batch_normalization_113", "inbound_nodes": [[["conv3d_118", 0, 0, {}]]]}, {"class_name": "BatchNormalization", "config": {"name": "batch_normalization_166", "trainable": true, "dtype": "float32", "axis": [4], "momentum": 0.99, "epsilon": 0.001, "center": true, "scale": true, "beta_initializer": {"class_name": "Zeros", "config": {}}, "gamma_initializer": {"class_name": "Ones", "config": {}}, "moving_mean_initializer": {"class_name": "Zeros", "config": {}}, "moving_variance_initializer": {"class_name": "Ones", "config": {}}, "beta_regularizer": null, "gamma_regularizer": null, "beta_constraint": null, "gamma_constraint": null}, "name": "batch_normalization_166", "inbound_nodes": [[["conv3d_174", 0, 0, {}]]]}, {"class_name": "Add", "config": {"name": "add_33", "trainable": true, "dtype": "float32"}, "name": "add_33", "inbound_nodes": [[["batch_normalization_113", 0, 0, {}], ["re_lu_101", 0, 0, {}]]]}, {"class_name": "Add", "config": {"name": "add_49", "trainable": true, "dtype": "float32"}, "name": "add_49", "inbound_nodes": [[["batch_normalization_166", 0, 0, {}], ["re_lu_150", 0, 0, {}]]]}, {"class_name": "ReLU", "config": {"name": "re_lu_104", "trainable": true, "dtype": "float32", "max_value": null, "negative_slope": 0.0, "threshold": 0.0}, "name": "re_lu_104", "inbound_nodes": [[["add_33", 0, 0, {}]]]}, {"class_name": "ReLU", "config": {"name": "re_lu_153", "trainable": true, "dtype": "float32", "max_value": null, "negative_slope": 0.0, "threshold": 0.0}, "name": "re_lu_153", "inbound_nodes": [[["add_49", 0, 0, {}]]]}, {"class_name": "Sequential", "config": {"name": "sequential_80", "layers": [{"class_name": "InputLayer", "config": {"batch_input_shape": [null, null, null, null, 32], "dtype": "float32", "sparse": false, "ragged": false, "name": "conv3d_119_input"}}, {"class_name": "Conv3D", "config": {"name": "conv3d_119", "trainable": true, "dtype": "float32", "filters": 8, "kernel_size": [3, 1, 1], "strides": [1, 1, 1], "padding": "same", "data_format": "channels_last", "dilation_rate": [1, 1, 1], "groups": 1, "activation": "linear", "use_bias": false, "kernel_initializer": {"class_name": "GlorotUniform", "config": {"seed": null}}, "bias_initializer": {"class_name": "Zeros", "config": {}}, "kernel_regularizer": null, "bias_regularizer": null, "activity_regularizer": null, "kernel_constraint": null, "bias_constraint": null}}, {"class_name": "BatchNormalization", "config": {"name": "batch_normalization_114", "trainable": true, "dtype": "float32", "axis": [4], "momentum": 0.99, "epsilon": 0.001, "center": true, "scale": true, "beta_initializer": {"class_name": "Zeros", "config": {}}, "gamma_initializer": {"class_name": "Ones", "config": {}}, "moving_mean_initializer": {"class_name": "Zeros", "config": {}}, "moving_variance_initializer": {"class_name": "Ones", "config": {}}, "beta_regularizer": null, "gamma_regularizer": null, "beta_constraint": null, "gamma_constraint": null}}, {"class_name": "ReLU", "config": {"name": "re_lu_105", "trainable": true, "dtype": "float32", "max_value": null, "negative_slope": 0.0, "threshold": 0.0}}]}, "name": "sequential_80", "inbound_nodes": [[["re_lu_104", 0, 0, {}]]]}, {"class_name": "Sequential", "config": {"name": "sequential_117", "layers": [{"class_name": "InputLayer", "config": {"batch_input_shape": [null, null, null, null, 256], "dtype": "float32", "sparse": false, "ragged": false, "name": "conv3d_175_input"}}, {"class_name": "Conv3D", "config": {"name": "conv3d_175", "trainable": true, "dtype": "float32", "filters": 64, "kernel_size": [1, 1, 1], "strides": [1, 1, 1], "padding": "same", "data_format": "channels_last", "dilation_rate": [1, 1, 1], "groups": 1, "activation": "linear", "use_bias": false, "kernel_initializer": {"class_name": "GlorotUniform", "config": {"seed": null}}, "bias_initializer": {"class_name": "Zeros", "config": {}}, "kernel_regularizer": null, "bias_regularizer": null, "activity_regularizer": null, "kernel_constraint": null, "bias_constraint": null}}, {"class_name": "BatchNormalization", "config": {"name": "batch_normalization_167", "trainable": true, "dtype": "float32", "axis": [4], "momentum": 0.99, "epsilon": 0.001, "center": true, "scale": true, "beta_initializer": {"class_name": "Zeros", "config": {}}, "gamma_initializer": {"class_name": "Ones", "config": {}}, "moving_mean_initializer": {"class_name": "Zeros", "config": {}}, "moving_variance_initializer": {"class_name": "Ones", "config": {}}, "beta_regularizer": null, "gamma_regularizer": null, "beta_constraint": null, "gamma_constraint": null}}, {"class_name": "ReLU", "config": {"name": "re_lu_154", "trainable": true, "dtype": "float32", "max_value": null, "negative_slope": 0.0, "threshold": 0.0}}]}, "name": "sequential_117", "inbound_nodes": [[["re_lu_153", 0, 0, {}]]]}, {"class_name": "Sequential", "config": {"name": "sequential_81", "layers": [{"class_name": "InputLayer", "config": {"batch_input_shape": [null, null, null, null, 8], "dtype": "float32", "sparse": false, "ragged": false, "name": "conv3d_120_input"}}, {"class_name": "Conv3D", "config": {"name": "conv3d_120", "trainable": true, "dtype": "float32", "filters": 8, "kernel_size": [1, 3, 3], "strides": [1, 1, 1], "padding": "same", "data_format": "channels_last", "dilation_rate": [1, 1, 1], "groups": 1, "activation": "linear", "use_bias": false, "kernel_initializer": {"class_name": "GlorotUniform", "config": {"seed": null}}, "bias_initializer": {"class_name": "Zeros", "config": {}}, "kernel_regularizer": null, "bias_regularizer": null, "activity_regularizer": null, "kernel_constraint": null, "bias_constraint": null}}, {"class_name": "BatchNormalization", "config": {"name": "batch_normalization_115", "trainable": true, "dtype": "float32", "axis": [4], "momentum": 0.99, "epsilon": 0.001, "center": true, "scale": true, "beta_initializer": {"class_name": "Zeros", "config": {}}, "gamma_initializer": {"class_name": "Ones", "config": {}}, "moving_mean_initializer": {"class_name": "Zeros", "config": {}}, "moving_variance_initializer": {"class_name": "Ones", "config": {}}, "beta_regularizer": null, "gamma_regularizer": null, "beta_constraint": null, "gamma_constraint": null}}, {"class_name": "ReLU", "config": {"name": "re_lu_106", "trainable": true, "dtype": "float32", "max_value": null, "negative_slope": 0.0, "threshold": 0.0}}]}, "name": "sequential_81", "inbound_nodes": [[["sequential_80", 1, 0, {}]]]}, {"class_name": "Sequential", "config": {"name": "sequential_118", "layers": [{"class_name": "InputLayer", "config": {"batch_input_shape": [null, null, null, null, 64], "dtype": "float32", "sparse": false, "ragged": false, "name": "conv3d_176_input"}}, {"class_name": "Conv3D", "config": {"name": "conv3d_176", "trainable": true, "dtype": "float32", "filters": 64, "kernel_size": [1, 3, 3], "strides": [1, 1, 1], "padding": "same", "data_format": "channels_last", "dilation_rate": [1, 1, 1], "groups": 1, "activation": "linear", "use_bias": false, "kernel_initializer": {"class_name": "GlorotUniform", "config": {"seed": null}}, "bias_initializer": {"class_name": "Zeros", "config": {}}, "kernel_regularizer": null, "bias_regularizer": null, "activity_regularizer": null, "kernel_constraint": null, "bias_constraint": null}}, {"class_name": "BatchNormalization", "config": {"name": "batch_normalization_168", "trainable": true, "dtype": "float32", "axis": [4], "momentum": 0.99, "epsilon": 0.001, "center": true, "scale": true, "beta_initializer": {"class_name": "Zeros", "config": {}}, "gamma_initializer": {"class_name": "Ones", "config": {}}, "moving_mean_initializer": {"class_name": "Zeros", "config": {}}, "moving_variance_initializer": {"class_name": "Ones", "config": {}}, "beta_regularizer": null, "gamma_regularizer": null, "beta_constraint": null, "gamma_constraint": null}}, {"class_name": "ReLU", "config": {"name": "re_lu_155", "trainable": true, "dtype": "float32", "max_value": null, "negative_slope": 0.0, "threshold": 0.0}}]}, "name": "sequential_118", "inbound_nodes": [[["sequential_117", 1, 0, {}]]]}, {"class_name": "Conv3D", "config": {"name": "conv3d_121", "trainable": true, "dtype": "float32", "filters": 32, "kernel_size": [1, 1, 1], "strides": [1, 1, 1], "padding": "valid", "data_format": "channels_last", "dilation_rate": [1, 1, 1], "groups": 1, "activation": "linear", "use_bias": false, "kernel_initializer": {"class_name": "GlorotUniform", "config": {"seed": null}}, "bias_initializer": {"class_name": "Zeros", "config": {}}, "kernel_regularizer": null, "bias_regularizer": null, "activity_regularizer": null, "kernel_constraint": null, "bias_constraint": null}, "name": "conv3d_121", "inbound_nodes": [[["sequential_81", 1, 0, {}]]]}, {"class_name": "Conv3D", "config": {"name": "conv3d_177", "trainable": true, "dtype": "float32", "filters": 256, "kernel_size": [1, 1, 1], "strides": [1, 1, 1], "padding": "valid", "data_format": "channels_last", "dilation_rate": [1, 1, 1], "groups": 1, "activation": "linear", "use_bias": false, "kernel_initializer": {"class_name": "GlorotUniform", "config": {"seed": null}}, "bias_initializer": {"class_name": "Zeros", "config": {}}, "kernel_regularizer": null, "bias_regularizer": null, "activity_regularizer": null, "kernel_constraint": null, "bias_constraint": null}, "name": "conv3d_177", "inbound_nodes": [[["sequential_118", 1, 0, {}]]]}, {"class_name": "BatchNormalization", "config": {"name": "batch_normalization_116", "trainable": true, "dtype": "float32", "axis": [4], "momentum": 0.99, "epsilon": 0.001, "center": true, "scale": true, "beta_initializer": {"class_name": "Zeros", "config": {}}, "gamma_initializer": {"class_name": "Ones", "config": {}}, "moving_mean_initializer": {"class_name": "Zeros", "config": {}}, "moving_variance_initializer": {"class_name": "Ones", "config": {}}, "beta_regularizer": null, "gamma_regularizer": null, "beta_constraint": null, "gamma_constraint": null}, "name": "batch_normalization_116", "inbound_nodes": [[["conv3d_121", 0, 0, {}]]]}, {"class_name": "BatchNormalization", "config": {"name": "batch_normalization_169", "trainable": true, "dtype": "float32", "axis": [4], "momentum": 0.99, "epsilon": 0.001, "center": true, "scale": true, "beta_initializer": {"class_name": "Zeros", "config": {}}, "gamma_initializer": {"class_name": "Ones", "config": {}}, "moving_mean_initializer": {"class_name": "Zeros", "config": {}}, "moving_variance_initializer": {"class_name": "Ones", "config": {}}, "beta_regularizer": null, "gamma_regularizer": null, "beta_constraint": null, "gamma_constraint": null}, "name": "batch_normalization_169", "inbound_nodes": [[["conv3d_177", 0, 0, {}]]]}, {"class_name": "Add", "config": {"name": "add_34", "trainable": true, "dtype": "float32"}, "name": "add_34", "inbound_nodes": [[["batch_normalization_116", 0, 0, {}], ["re_lu_104", 0, 0, {}]]]}, {"class_name": "Add", "config": {"name": "add_50", "trainable": true, "dtype": "float32"}, "name": "add_50", "inbound_nodes": [[["batch_normalization_169", 0, 0, {}], ["re_lu_153", 0, 0, {}]]]}, {"class_name": "ReLU", "config": {"name": "re_lu_107", "trainable": true, "dtype": "float32", "max_value": null, "negative_slope": 0.0, "threshold": 0.0}, "name": "re_lu_107", "inbound_nodes": [[["add_34", 0, 0, {}]]]}, {"class_name": "ReLU", "config": {"name": "re_lu_156", "trainable": true, "dtype": "float32", "max_value": null, "negative_slope": 0.0, "threshold": 0.0}, "name": "re_lu_156", "inbound_nodes": [[["add_50", 0, 0, {}]]]}, {"class_name": "Conv3D", "config": {"name": "conv3d_122", "trainable": true, "dtype": "float32", "filters": 64, "kernel_size": [5, 1, 1], "strides": [8, 1, 1], "padding": "same", "data_format": "channels_last", "dilation_rate": [1, 1, 1], "groups": 1, "activation": "linear", "use_bias": false, "kernel_initializer": {"class_name": "GlorotUniform", "config": {"seed": null}}, "bias_initializer": {"class_name": "Zeros", "config": {}}, "kernel_regularizer": null, "bias_regularizer": null, "activity_regularizer": null, "kernel_constraint": null, "bias_constraint": null}, "name": "conv3d_122", "inbound_nodes": [[["re_lu_107", 0, 0, {}]]]}, {"class_name": "Concatenate", "config": {"name": "concatenate_6", "trainable": true, "dtype": "float32", "axis": -1}, "name": "concatenate_6", "inbound_nodes": [[["re_lu_156", 0, 0, {}], ["conv3d_122", 0, 0, {}]]]}, {"class_name": "Sequential", "config": {"name": "sequential_83", "layers": [{"class_name": "InputLayer", "config": {"batch_input_shape": [null, null, null, null, 32], "dtype": "float32", "sparse": false, "ragged": false, "name": "conv3d_124_input"}}, {"class_name": "Conv3D", "config": {"name": "conv3d_124", "trainable": true, "dtype": "float32", "filters": 16, "kernel_size": [3, 1, 1], "strides": [1, 1, 1], "padding": "same", "data_format": "channels_last", "dilation_rate": [1, 1, 1], "groups": 1, "activation": "linear", "use_bias": false, "kernel_initializer": {"class_name": "GlorotUniform", "config": {"seed": null}}, "bias_initializer": {"class_name": "Zeros", "config": {}}, "kernel_regularizer": null, "bias_regularizer": null, "activity_regularizer": null, "kernel_constraint": null, "bias_constraint": null}}, {"class_name": "BatchNormalization", "config": {"name": "batch_normalization_118", "trainable": true, "dtype": "float32", "axis": [4], "momentum": 0.99, "epsilon": 0.001, "center": true, "scale": true, "beta_initializer": {"class_name": "Zeros", "config": {}}, "gamma_initializer": {"class_name": "Ones", "config": {}}, "moving_mean_initializer": {"class_name": "Zeros", "config": {}}, "moving_variance_initializer": {"class_name": "Ones", "config": {}}, "beta_regularizer": null, "gamma_regularizer": null, "beta_constraint": null, "gamma_constraint": null}}, {"class_name": "ReLU", "config": {"name": "re_lu_108", "trainable": true, "dtype": "float32", "max_value": null, "negative_slope": 0.0, "threshold": 0.0}}]}, "name": "sequential_83", "inbound_nodes": [[["re_lu_107", 0, 0, {}]]]}, {"class_name": "Sequential", "config": {"name": "sequential_120", "layers": [{"class_name": "InputLayer", "config": {"batch_input_shape": [null, null, null, null, 320], "dtype": "float32", "sparse": false, "ragged": false, "name": "conv3d_179_input"}}, {"class_name": "Conv3D", "config": {"name": "conv3d_179", "trainable": true, "dtype": "float32", "filters": 128, "kernel_size": [1, 1, 1], "strides": [1, 1, 1], "padding": "same", "data_format": "channels_last", "dilation_rate": [1, 1, 1], "groups": 1, "activation": "linear", "use_bias": false, "kernel_initializer": {"class_name": "GlorotUniform", "config": {"seed": null}}, "bias_initializer": {"class_name": "Zeros", "config": {}}, "kernel_regularizer": null, "bias_regularizer": null, "activity_regularizer": null, "kernel_constraint": null, "bias_constraint": null}}, {"class_name": "BatchNormalization", "config": {"name": "batch_normalization_171", "trainable": true, "dtype": "float32", "axis": [4], "momentum": 0.99, "epsilon": 0.001, "center": true, "scale": true, "beta_initializer": {"class_name": "Zeros", "config": {}}, "gamma_initializer": {"class_name": "Ones", "config": {}}, "moving_mean_initializer": {"class_name": "Zeros", "config": {}}, "moving_variance_initializer": {"class_name": "Ones", "config": {}}, "beta_regularizer": null, "gamma_regularizer": null, "beta_constraint": null, "gamma_constraint": null}}, {"class_name": "ReLU", "config": {"name": "re_lu_157", "trainable": true, "dtype": "float32", "max_value": null, "negative_slope": 0.0, "threshold": 0.0}}]}, "name": "sequential_120", "inbound_nodes": [[["concatenate_6", 0, 0, {}]]]}, {"class_name": "Sequential", "config": {"name": "sequential_84", "layers": [{"class_name": "InputLayer", "config": {"batch_input_shape": [null, null, null, null, 16], "dtype": "float32", "sparse": false, "ragged": false, "name": "conv3d_125_input"}}, {"class_name": "Conv3D", "config": {"name": "conv3d_125", "trainable": true, "dtype": "float32", "filters": 16, "kernel_size": [1, 3, 3], "strides": [1, 2, 2], "padding": "same", "data_format": "channels_last", "dilation_rate": [1, 1, 1], "groups": 1, "activation": "linear", "use_bias": false, "kernel_initializer": {"class_name": "GlorotUniform", "config": {"seed": null}}, "bias_initializer": {"class_name": "Zeros", "config": {}}, "kernel_regularizer": null, "bias_regularizer": null, "activity_regularizer": null, "kernel_constraint": null, "bias_constraint": null}}, {"class_name": "BatchNormalization", "config": {"name": "batch_normalization_119", "trainable": true, "dtype": "float32", "axis": [4], "momentum": 0.99, "epsilon": 0.001, "center": true, "scale": true, "beta_initializer": {"class_name": "Zeros", "config": {}}, "gamma_initializer": {"class_name": "Ones", "config": {}}, "moving_mean_initializer": {"class_name": "Zeros", "config": {}}, "moving_variance_initializer": {"class_name": "Ones", "config": {}}, "beta_regularizer": null, "gamma_regularizer": null, "beta_constraint": null, "gamma_constraint": null}}, {"class_name": "ReLU", "config": {"name": "re_lu_109", "trainable": true, "dtype": "float32", "max_value": null, "negative_slope": 0.0, "threshold": 0.0}}]}, "name": "sequential_84", "inbound_nodes": [[["sequential_83", 1, 0, {}]]]}, {"class_name": "Sequential", "config": {"name": "sequential_121", "layers": [{"class_name": "InputLayer", "config": {"batch_input_shape": [null, null, null, null, 128], "dtype": "float32", "sparse": false, "ragged": false, "name": "conv3d_180_input"}}, {"class_name": "Conv3D", "config": {"name": "conv3d_180", "trainable": true, "dtype": "float32", "filters": 128, "kernel_size": [1, 3, 3], "strides": [1, 2, 2], "padding": "same", "data_format": "channels_last", "dilation_rate": [1, 1, 1], "groups": 1, "activation": "linear", "use_bias": false, "kernel_initializer": {"class_name": "GlorotUniform", "config": {"seed": null}}, "bias_initializer": {"class_name": "Zeros", "config": {}}, "kernel_regularizer": null, "bias_regularizer": null, "activity_regularizer": null, "kernel_constraint": null, "bias_constraint": null}}, {"class_name": "BatchNormalization", "config": {"name": "batch_normalization_172", "trainable": true, "dtype": "float32", "axis": [4], "momentum": 0.99, "epsilon": 0.001, "center": true, "scale": true, "beta_initializer": {"class_name": "Zeros", "config": {}}, "gamma_initializer": {"class_name": "Ones", "config": {}}, "moving_mean_initializer": {"class_name": "Zeros", "config": {}}, "moving_variance_initializer": {"class_name": "Ones", "config": {}}, "beta_regularizer": null, "gamma_regularizer": null, "beta_constraint": null, "gamma_constraint": null}}, {"class_name": "ReLU", "config": {"name": "re_lu_158", "trainable": true, "dtype": "float32", "max_value": null, "negative_slope": 0.0, "threshold": 0.0}}]}, "name": "sequential_121", "inbound_nodes": [[["sequential_120", 1, 0, {}]]]}, {"class_name": "Conv3D", "config": {"name": "conv3d_126", "trainable": true, "dtype": "float32", "filters": 64, "kernel_size": [1, 1, 1], "strides": [1, 1, 1], "padding": "valid", "data_format": "channels_last", "dilation_rate": [1, 1, 1], "groups": 1, "activation": "linear", "use_bias": false, "kernel_initializer": {"class_name": "GlorotUniform", "config": {"seed": null}}, "bias_initializer": {"class_name": "Zeros", "config": {}}, "kernel_regularizer": null, "bias_regularizer": null, "activity_regularizer": null, "kernel_constraint": null, "bias_constraint": null}, "name": "conv3d_126", "inbound_nodes": [[["sequential_84", 1, 0, {}]]]}, {"class_name": "Conv3D", "config": {"name": "conv3d_181", "trainable": true, "dtype": "float32", "filters": 512, "kernel_size": [1, 1, 1], "strides": [1, 1, 1], "padding": "valid", "data_format": "channels_last", "dilation_rate": [1, 1, 1], "groups": 1, "activation": "linear", "use_bias": false, "kernel_initializer": {"class_name": "GlorotUniform", "config": {"seed": null}}, "bias_initializer": {"class_name": "Zeros", "config": {}}, "kernel_regularizer": null, "bias_regularizer": null, "activity_regularizer": null, "kernel_constraint": null, "bias_constraint": null}, "name": "conv3d_181", "inbound_nodes": [[["sequential_121", 1, 0, {}]]]}, {"class_name": "BatchNormalization", "config": {"name": "batch_normalization_120", "trainable": true, "dtype": "float32", "axis": [4], "momentum": 0.99, "epsilon": 0.001, "center": true, "scale": true, "beta_initializer": {"class_name": "Zeros", "config": {}}, "gamma_initializer": {"class_name": "Ones", "config": {}}, "moving_mean_initializer": {"class_name": "Zeros", "config": {}}, "moving_variance_initializer": {"class_name": "Ones", "config": {}}, "beta_regularizer": null, "gamma_regularizer": null, "beta_constraint": null, "gamma_constraint": null}, "name": "batch_normalization_120", "inbound_nodes": [[["conv3d_126", 0, 0, {}]]]}, {"class_name": "Sequential", "config": {"name": "sequential_82", "layers": [{"class_name": "InputLayer", "config": {"batch_input_shape": [null, null, null, null, 32], "dtype": "float32", "sparse": false, "ragged": false, "name": "conv3d_123_input"}}, {"class_name": "Conv3D", "config": {"name": "conv3d_123", "trainable": true, "dtype": "float32", "filters": 64, "kernel_size": [1, 1, 1], "strides": [1, 2, 2], "padding": "valid", "data_format": "channels_last", "dilation_rate": [1, 1, 1], "groups": 1, "activation": "linear", "use_bias": false, "kernel_initializer": {"class_name": "GlorotUniform", "config": {"seed": null}}, "bias_initializer": {"class_name": "Zeros", "config": {}}, "kernel_regularizer": null, "bias_regularizer": null, "activity_regularizer": null, "kernel_constraint": null, "bias_constraint": null}}, {"class_name": "BatchNormalization", "config": {"name": "batch_normalization_117", "trainable": true, "dtype": "float32", "axis": [4], "momentum": 0.99, "epsilon": 0.001, "center": true, "scale": true, "beta_initializer": {"class_name": "Zeros", "config": {}}, "gamma_initializer": {"class_name": "Ones", "config": {}}, "moving_mean_initializer": {"class_name": "Zeros", "config": {}}, "moving_variance_initializer": {"class_name": "Ones", "config": {}}, "beta_regularizer": null, "gamma_regularizer": null, "beta_constraint": null, "gamma_constraint": null}}]}, "name": "sequential_82", "inbound_nodes": [[["re_lu_107", 0, 0, {}]]]}, {"class_name": "BatchNormalization", "config": {"name": "batch_normalization_173", "trainable": true, "dtype": "float32", "axis": [4], "momentum": 0.99, "epsilon": 0.001, "center": true, "scale": true, "beta_initializer": {"class_name": "Zeros", "config": {}}, "gamma_initializer": {"class_name": "Ones", "config": {}}, "moving_mean_initializer": {"class_name": "Zeros", "config": {}}, "moving_variance_initializer": {"class_name": "Ones", "config": {}}, "beta_regularizer": null, "gamma_regularizer": null, "beta_constraint": null, "gamma_constraint": null}, "name": "batch_normalization_173", "inbound_nodes": [[["conv3d_181", 0, 0, {}]]]}, {"class_name": "Sequential", "config": {"name": "sequential_119", "layers": [{"class_name": "InputLayer", "config": {"batch_input_shape": [null, null, null, null, 320], "dtype": "float32", "sparse": false, "ragged": false, "name": "conv3d_178_input"}}, {"class_name": "Conv3D", "config": {"name": "conv3d_178", "trainable": true, "dtype": "float32", "filters": 512, "kernel_size": [1, 1, 1], "strides": [1, 2, 2], "padding": "valid", "data_format": "channels_last", "dilation_rate": [1, 1, 1], "groups": 1, "activation": "linear", "use_bias": false, "kernel_initializer": {"class_name": "GlorotUniform", "config": {"seed": null}}, "bias_initializer": {"class_name": "Zeros", "config": {}}, "kernel_regularizer": null, "bias_regularizer": null, "activity_regularizer": null, "kernel_constraint": null, "bias_constraint": null}}, {"class_name": "BatchNormalization", "config": {"name": "batch_normalization_170", "trainable": true, "dtype": "float32", "axis": [4], "momentum": 0.99, "epsilon": 0.001, "center": true, "scale": true, "beta_initializer": {"class_name": "Zeros", "config": {}}, "gamma_initializer": {"class_name": "Ones", "config": {}}, "moving_mean_initializer": {"class_name": "Zeros", "config": {}}, "moving_variance_initializer": {"class_name": "Ones", "config": {}}, "beta_regularizer": null, "gamma_regularizer": null, "beta_constraint": null, "gamma_constraint": null}}]}, "name": "sequential_119", "inbound_nodes": [[["concatenate_6", 0, 0, {}]]]}, {"class_name": "Add", "config": {"name": "add_35", "trainable": true, "dtype": "float32"}, "name": "add_35", "inbound_nodes": [[["batch_normalization_120", 0, 0, {}], ["sequential_82", 1, 0, {}]]]}, {"class_name": "Add", "config": {"name": "add_51", "trainable": true, "dtype": "float32"}, "name": "add_51", "inbound_nodes": [[["batch_normalization_173", 0, 0, {}], ["sequential_119", 1, 0, {}]]]}, {"class_name": "ReLU", "config": {"name": "re_lu_110", "trainable": true, "dtype": "float32", "max_value": null, "negative_slope": 0.0, "threshold": 0.0}, "name": "re_lu_110", "inbound_nodes": [[["add_35", 0, 0, {}]]]}, {"class_name": "ReLU", "config": {"name": "re_lu_159", "trainable": true, "dtype": "float32", "max_value": null, "negative_slope": 0.0, "threshold": 0.0}, "name": "re_lu_159", "inbound_nodes": [[["add_51", 0, 0, {}]]]}, {"class_name": "Sequential", "config": {"name": "sequential_85", "layers": [{"class_name": "InputLayer", "config": {"batch_input_shape": [null, null, null, null, 64], "dtype": "float32", "sparse": false, "ragged": false, "name": "conv3d_127_input"}}, {"class_name": "Conv3D", "config": {"name": "conv3d_127", "trainable": true, "dtype": "float32", "filters": 16, "kernel_size": [3, 1, 1], "strides": [1, 1, 1], "padding": "same", "data_format": "channels_last", "dilation_rate": [1, 1, 1], "groups": 1, "activation": "linear", "use_bias": false, "kernel_initializer": {"class_name": "GlorotUniform", "config": {"seed": null}}, "bias_initializer": {"class_name": "Zeros", "config": {}}, "kernel_regularizer": null, "bias_regularizer": null, "activity_regularizer": null, "kernel_constraint": null, "bias_constraint": null}}, {"class_name": "BatchNormalization", "config": {"name": "batch_normalization_121", "trainable": true, "dtype": "float32", "axis": [4], "momentum": 0.99, "epsilon": 0.001, "center": true, "scale": true, "beta_initializer": {"class_name": "Zeros", "config": {}}, "gamma_initializer": {"class_name": "Ones", "config": {}}, "moving_mean_initializer": {"class_name": "Zeros", "config": {}}, "moving_variance_initializer": {"class_name": "Ones", "config": {}}, "beta_regularizer": null, "gamma_regularizer": null, "beta_constraint": null, "gamma_constraint": null}}, {"class_name": "ReLU", "config": {"name": "re_lu_111", "trainable": true, "dtype": "float32", "max_value": null, "negative_slope": 0.0, "threshold": 0.0}}]}, "name": "sequential_85", "inbound_nodes": [[["re_lu_110", 0, 0, {}]]]}, {"class_name": "Sequential", "config": {"name": "sequential_122", "layers": [{"class_name": "InputLayer", "config": {"batch_input_shape": [null, null, null, null, 512], "dtype": "float32", "sparse": false, "ragged": false, "name": "conv3d_182_input"}}, {"class_name": "Conv3D", "config": {"name": "conv3d_182", "trainable": true, "dtype": "float32", "filters": 128, "kernel_size": [1, 1, 1], "strides": [1, 1, 1], "padding": "same", "data_format": "channels_last", "dilation_rate": [1, 1, 1], "groups": 1, "activation": "linear", "use_bias": false, "kernel_initializer": {"class_name": "GlorotUniform", "config": {"seed": null}}, "bias_initializer": {"class_name": "Zeros", "config": {}}, "kernel_regularizer": null, "bias_regularizer": null, "activity_regularizer": null, "kernel_constraint": null, "bias_constraint": null}}, {"class_name": "BatchNormalization", "config": {"name": "batch_normalization_174", "trainable": true, "dtype": "float32", "axis": [4], "momentum": 0.99, "epsilon": 0.001, "center": true, "scale": true, "beta_initializer": {"class_name": "Zeros", "config": {}}, "gamma_initializer": {"class_name": "Ones", "config": {}}, "moving_mean_initializer": {"class_name": "Zeros", "config": {}}, "moving_variance_initializer": {"class_name": "Ones", "config": {}}, "beta_regularizer": null, "gamma_regularizer": null, "beta_constraint": null, "gamma_constraint": null}}, {"class_name": "ReLU", "config": {"name": "re_lu_160", "trainable": true, "dtype": "float32", "max_value": null, "negative_slope": 0.0, "threshold": 0.0}}]}, "name": "sequential_122", "inbound_nodes": [[["re_lu_159", 0, 0, {}]]]}, {"class_name": "Sequential", "config": {"name": "sequential_86", "layers": [{"class_name": "InputLayer", "config": {"batch_input_shape": [null, null, null, null, 16], "dtype": "float32", "sparse": false, "ragged": false, "name": "conv3d_128_input"}}, {"class_name": "Conv3D", "config": {"name": "conv3d_128", "trainable": true, "dtype": "float32", "filters": 16, "kernel_size": [1, 3, 3], "strides": [1, 1, 1], "padding": "same", "data_format": "channels_last", "dilation_rate": [1, 1, 1], "groups": 1, "activation": "linear", "use_bias": false, "kernel_initializer": {"class_name": "GlorotUniform", "config": {"seed": null}}, "bias_initializer": {"class_name": "Zeros", "config": {}}, "kernel_regularizer": null, "bias_regularizer": null, "activity_regularizer": null, "kernel_constraint": null, "bias_constraint": null}}, {"class_name": "BatchNormalization", "config": {"name": "batch_normalization_122", "trainable": true, "dtype": "float32", "axis": [4], "momentum": 0.99, "epsilon": 0.001, "center": true, "scale": true, "beta_initializer": {"class_name": "Zeros", "config": {}}, "gamma_initializer": {"class_name": "Ones", "config": {}}, "moving_mean_initializer": {"class_name": "Zeros", "config": {}}, "moving_variance_initializer": {"class_name": "Ones", "config": {}}, "beta_regularizer": null, "gamma_regularizer": null, "beta_constraint": null, "gamma_constraint": null}}, {"class_name": "ReLU", "config": {"name": "re_lu_112", "trainable": true, "dtype": "float32", "max_value": null, "negative_slope": 0.0, "threshold": 0.0}}]}, "name": "sequential_86", "inbound_nodes": [[["sequential_85", 1, 0, {}]]]}, {"class_name": "Sequential", "config": {"name": "sequential_123", "layers": [{"class_name": "InputLayer", "config": {"batch_input_shape": [null, null, null, null, 128], "dtype": "float32", "sparse": false, "ragged": false, "name": "conv3d_183_input"}}, {"class_name": "Conv3D", "config": {"name": "conv3d_183", "trainable": true, "dtype": "float32", "filters": 128, "kernel_size": [1, 3, 3], "strides": [1, 1, 1], "padding": "same", "data_format": "channels_last", "dilation_rate": [1, 1, 1], "groups": 1, "activation": "linear", "use_bias": false, "kernel_initializer": {"class_name": "GlorotUniform", "config": {"seed": null}}, "bias_initializer": {"class_name": "Zeros", "config": {}}, "kernel_regularizer": null, "bias_regularizer": null, "activity_regularizer": null, "kernel_constraint": null, "bias_constraint": null}}, {"class_name": "BatchNormalization", "config": {"name": "batch_normalization_175", "trainable": true, "dtype": "float32", "axis": [4], "momentum": 0.99, "epsilon": 0.001, "center": true, "scale": true, "beta_initializer": {"class_name": "Zeros", "config": {}}, "gamma_initializer": {"class_name": "Ones", "config": {}}, "moving_mean_initializer": {"class_name": "Zeros", "config": {}}, "moving_variance_initializer": {"class_name": "Ones", "config": {}}, "beta_regularizer": null, "gamma_regularizer": null, "beta_constraint": null, "gamma_constraint": null}}, {"class_name": "ReLU", "config": {"name": "re_lu_161", "trainable": true, "dtype": "float32", "max_value": null, "negative_slope": 0.0, "threshold": 0.0}}]}, "name": "sequential_123", "inbound_nodes": [[["sequential_122", 1, 0, {}]]]}, {"class_name": "Conv3D", "config": {"name": "conv3d_129", "trainable": true, "dtype": "float32", "filters": 64, "kernel_size": [1, 1, 1], "strides": [1, 1, 1], "padding": "valid", "data_format": "channels_last", "dilation_rate": [1, 1, 1], "groups": 1, "activation": "linear", "use_bias": false, "kernel_initializer": {"class_name": "GlorotUniform", "config": {"seed": null}}, "bias_initializer": {"class_name": "Zeros", "config": {}}, "kernel_regularizer": null, "bias_regularizer": null, "activity_regularizer": null, "kernel_constraint": null, "bias_constraint": null}, "name": "conv3d_129", "inbound_nodes": [[["sequential_86", 1, 0, {}]]]}, {"class_name": "Conv3D", "config": {"name": "conv3d_184", "trainable": true, "dtype": "float32", "filters": 512, "kernel_size": [1, 1, 1], "strides": [1, 1, 1], "padding": "valid", "data_format": "channels_last", "dilation_rate": [1, 1, 1], "groups": 1, "activation": "linear", "use_bias": false, "kernel_initializer": {"class_name": "GlorotUniform", "config": {"seed": null}}, "bias_initializer": {"class_name": "Zeros", "config": {}}, "kernel_regularizer": null, "bias_regularizer": null, "activity_regularizer": null, "kernel_constraint": null, "bias_constraint": null}, "name": "conv3d_184", "inbound_nodes": [[["sequential_123", 1, 0, {}]]]}, {"class_name": "BatchNormalization", "config": {"name": "batch_normalization_123", "trainable": true, "dtype": "float32", "axis": [4], "momentum": 0.99, "epsilon": 0.001, "center": true, "scale": true, "beta_initializer": {"class_name": "Zeros", "config": {}}, "gamma_initializer": {"class_name": "Ones", "config": {}}, "moving_mean_initializer": {"class_name": "Zeros", "config": {}}, "moving_variance_initializer": {"class_name": "Ones", "config": {}}, "beta_regularizer": null, "gamma_regularizer": null, "beta_constraint": null, "gamma_constraint": null}, "name": "batch_normalization_123", "inbound_nodes": [[["conv3d_129", 0, 0, {}]]]}, {"class_name": "BatchNormalization", "config": {"name": "batch_normalization_176", "trainable": true, "dtype": "float32", "axis": [4], "momentum": 0.99, "epsilon": 0.001, "center": true, "scale": true, "beta_initializer": {"class_name": "Zeros", "config": {}}, "gamma_initializer": {"class_name": "Ones", "config": {}}, "moving_mean_initializer": {"class_name": "Zeros", "config": {}}, "moving_variance_initializer": {"class_name": "Ones", "config": {}}, "beta_regularizer": null, "gamma_regularizer": null, "beta_constraint": null, "gamma_constraint": null}, "name": "batch_normalization_176", "inbound_nodes": [[["conv3d_184", 0, 0, {}]]]}, {"class_name": "Add", "config": {"name": "add_36", "trainable": true, "dtype": "float32"}, "name": "add_36", "inbound_nodes": [[["batch_normalization_123", 0, 0, {}], ["re_lu_110", 0, 0, {}]]]}, {"class_name": "Add", "config": {"name": "add_52", "trainable": true, "dtype": "float32"}, "name": "add_52", "inbound_nodes": [[["batch_normalization_176", 0, 0, {}], ["re_lu_159", 0, 0, {}]]]}, {"class_name": "ReLU", "config": {"name": "re_lu_113", "trainable": true, "dtype": "float32", "max_value": null, "negative_slope": 0.0, "threshold": 0.0}, "name": "re_lu_113", "inbound_nodes": [[["add_36", 0, 0, {}]]]}, {"class_name": "ReLU", "config": {"name": "re_lu_162", "trainable": true, "dtype": "float32", "max_value": null, "negative_slope": 0.0, "threshold": 0.0}, "name": "re_lu_162", "inbound_nodes": [[["add_52", 0, 0, {}]]]}, {"class_name": "Sequential", "config": {"name": "sequential_87", "layers": [{"class_name": "InputLayer", "config": {"batch_input_shape": [null, null, null, null, 64], "dtype": "float32", "sparse": false, "ragged": false, "name": "conv3d_130_input"}}, {"class_name": "Conv3D", "config": {"name": "conv3d_130", "trainable": true, "dtype": "float32", "filters": 16, "kernel_size": [3, 1, 1], "strides": [1, 1, 1], "padding": "same", "data_format": "channels_last", "dilation_rate": [1, 1, 1], "groups": 1, "activation": "linear", "use_bias": false, "kernel_initializer": {"class_name": "GlorotUniform", "config": {"seed": null}}, "bias_initializer": {"class_name": "Zeros", "config": {}}, "kernel_regularizer": null, "bias_regularizer": null, "activity_regularizer": null, "kernel_constraint": null, "bias_constraint": null}}, {"class_name": "BatchNormalization", "config": {"name": "batch_normalization_124", "trainable": true, "dtype": "float32", "axis": [4], "momentum": 0.99, "epsilon": 0.001, "center": true, "scale": true, "beta_initializer": {"class_name": "Zeros", "config": {}}, "gamma_initializer": {"class_name": "Ones", "config": {}}, "moving_mean_initializer": {"class_name": "Zeros", "config": {}}, "moving_variance_initializer": {"class_name": "Ones", "config": {}}, "beta_regularizer": null, "gamma_regularizer": null, "beta_constraint": null, "gamma_constraint": null}}, {"class_name": "ReLU", "config": {"name": "re_lu_114", "trainable": true, "dtype": "float32", "max_value": null, "negative_slope": 0.0, "threshold": 0.0}}]}, "name": "sequential_87", "inbound_nodes": [[["re_lu_113", 0, 0, {}]]]}, {"class_name": "Sequential", "config": {"name": "sequential_124", "layers": [{"class_name": "InputLayer", "config": {"batch_input_shape": [null, null, null, null, 512], "dtype": "float32", "sparse": false, "ragged": false, "name": "conv3d_185_input"}}, {"class_name": "Conv3D", "config": {"name": "conv3d_185", "trainable": true, "dtype": "float32", "filters": 128, "kernel_size": [1, 1, 1], "strides": [1, 1, 1], "padding": "same", "data_format": "channels_last", "dilation_rate": [1, 1, 1], "groups": 1, "activation": "linear", "use_bias": false, "kernel_initializer": {"class_name": "GlorotUniform", "config": {"seed": null}}, "bias_initializer": {"class_name": "Zeros", "config": {}}, "kernel_regularizer": null, "bias_regularizer": null, "activity_regularizer": null, "kernel_constraint": null, "bias_constraint": null}}, {"class_name": "BatchNormalization", "config": {"name": "batch_normalization_177", "trainable": true, "dtype": "float32", "axis": [4], "momentum": 0.99, "epsilon": 0.001, "center": true, "scale": true, "beta_initializer": {"class_name": "Zeros", "config": {}}, "gamma_initializer": {"class_name": "Ones", "config": {}}, "moving_mean_initializer": {"class_name": "Zeros", "config": {}}, "moving_variance_initializer": {"class_name": "Ones", "config": {}}, "beta_regularizer": null, "gamma_regularizer": null, "beta_constraint": null, "gamma_constraint": null}}, {"class_name": "ReLU", "config": {"name": "re_lu_163", "trainable": true, "dtype": "float32", "max_value": null, "negative_slope": 0.0, "threshold": 0.0}}]}, "name": "sequential_124", "inbound_nodes": [[["re_lu_162", 0, 0, {}]]]}, {"class_name": "Sequential", "config": {"name": "sequential_88", "layers": [{"class_name": "InputLayer", "config": {"batch_input_shape": [null, null, null, null, 16], "dtype": "float32", "sparse": false, "ragged": false, "name": "conv3d_131_input"}}, {"class_name": "Conv3D", "config": {"name": "conv3d_131", "trainable": true, "dtype": "float32", "filters": 16, "kernel_size": [1, 3, 3], "strides": [1, 1, 1], "padding": "same", "data_format": "channels_last", "dilation_rate": [1, 1, 1], "groups": 1, "activation": "linear", "use_bias": false, "kernel_initializer": {"class_name": "GlorotUniform", "config": {"seed": null}}, "bias_initializer": {"class_name": "Zeros", "config": {}}, "kernel_regularizer": null, "bias_regularizer": null, "activity_regularizer": null, "kernel_constraint": null, "bias_constraint": null}}, {"class_name": "BatchNormalization", "config": {"name": "batch_normalization_125", "trainable": true, "dtype": "float32", "axis": [4], "momentum": 0.99, "epsilon": 0.001, "center": true, "scale": true, "beta_initializer": {"class_name": "Zeros", "config": {}}, "gamma_initializer": {"class_name": "Ones", "config": {}}, "moving_mean_initializer": {"class_name": "Zeros", "config": {}}, "moving_variance_initializer": {"class_name": "Ones", "config": {}}, "beta_regularizer": null, "gamma_regularizer": null, "beta_constraint": null, "gamma_constraint": null}}, {"class_name": "ReLU", "config": {"name": "re_lu_115", "trainable": true, "dtype": "float32", "max_value": null, "negative_slope": 0.0, "threshold": 0.0}}]}, "name": "sequential_88", "inbound_nodes": [[["sequential_87", 1, 0, {}]]]}, {"class_name": "Sequential", "config": {"name": "sequential_125", "layers": [{"class_name": "InputLayer", "config": {"batch_input_shape": [null, null, null, null, 128], "dtype": "float32", "sparse": false, "ragged": false, "name": "conv3d_186_input"}}, {"class_name": "Conv3D", "config": {"name": "conv3d_186", "trainable": true, "dtype": "float32", "filters": 128, "kernel_size": [1, 3, 3], "strides": [1, 1, 1], "padding": "same", "data_format": "channels_last", "dilation_rate": [1, 1, 1], "groups": 1, "activation": "linear", "use_bias": false, "kernel_initializer": {"class_name": "GlorotUniform", "config": {"seed": null}}, "bias_initializer": {"class_name": "Zeros", "config": {}}, "kernel_regularizer": null, "bias_regularizer": null, "activity_regularizer": null, "kernel_constraint": null, "bias_constraint": null}}, {"class_name": "BatchNormalization", "config": {"name": "batch_normalization_178", "trainable": true, "dtype": "float32", "axis": [4], "momentum": 0.99, "epsilon": 0.001, "center": true, "scale": true, "beta_initializer": {"class_name": "Zeros", "config": {}}, "gamma_initializer": {"class_name": "Ones", "config": {}}, "moving_mean_initializer": {"class_name": "Zeros", "config": {}}, "moving_variance_initializer": {"class_name": "Ones", "config": {}}, "beta_regularizer": null, "gamma_regularizer": null, "beta_constraint": null, "gamma_constraint": null}}, {"class_name": "ReLU", "config": {"name": "re_lu_164", "trainable": true, "dtype": "float32", "max_value": null, "negative_slope": 0.0, "threshold": 0.0}}]}, "name": "sequential_125", "inbound_nodes": [[["sequential_124", 1, 0, {}]]]}, {"class_name": "Conv3D", "config": {"name": "conv3d_132", "trainable": true, "dtype": "float32", "filters": 64, "kernel_size": [1, 1, 1], "strides": [1, 1, 1], "padding": "valid", "data_format": "channels_last", "dilation_rate": [1, 1, 1], "groups": 1, "activation": "linear", "use_bias": false, "kernel_initializer": {"class_name": "GlorotUniform", "config": {"seed": null}}, "bias_initializer": {"class_name": "Zeros", "config": {}}, "kernel_regularizer": null, "bias_regularizer": null, "activity_regularizer": null, "kernel_constraint": null, "bias_constraint": null}, "name": "conv3d_132", "inbound_nodes": [[["sequential_88", 1, 0, {}]]]}, {"class_name": "Conv3D", "config": {"name": "conv3d_187", "trainable": true, "dtype": "float32", "filters": 512, "kernel_size": [1, 1, 1], "strides": [1, 1, 1], "padding": "valid", "data_format": "channels_last", "dilation_rate": [1, 1, 1], "groups": 1, "activation": "linear", "use_bias": false, "kernel_initializer": {"class_name": "GlorotUniform", "config": {"seed": null}}, "bias_initializer": {"class_name": "Zeros", "config": {}}, "kernel_regularizer": null, "bias_regularizer": null, "activity_regularizer": null, "kernel_constraint": null, "bias_constraint": null}, "name": "conv3d_187", "inbound_nodes": [[["sequential_125", 1, 0, {}]]]}, {"class_name": "BatchNormalization", "config": {"name": "batch_normalization_126", "trainable": true, "dtype": "float32", "axis": [4], "momentum": 0.99, "epsilon": 0.001, "center": true, "scale": true, "beta_initializer": {"class_name": "Zeros", "config": {}}, "gamma_initializer": {"class_name": "Ones", "config": {}}, "moving_mean_initializer": {"class_name": "Zeros", "config": {}}, "moving_variance_initializer": {"class_name": "Ones", "config": {}}, "beta_regularizer": null, "gamma_regularizer": null, "beta_constraint": null, "gamma_constraint": null}, "name": "batch_normalization_126", "inbound_nodes": [[["conv3d_132", 0, 0, {}]]]}, {"class_name": "BatchNormalization", "config": {"name": "batch_normalization_179", "trainable": true, "dtype": "float32", "axis": [4], "momentum": 0.99, "epsilon": 0.001, "center": true, "scale": true, "beta_initializer": {"class_name": "Zeros", "config": {}}, "gamma_initializer": {"class_name": "Ones", "config": {}}, "moving_mean_initializer": {"class_name": "Zeros", "config": {}}, "moving_variance_initializer": {"class_name": "Ones", "config": {}}, "beta_regularizer": null, "gamma_regularizer": null, "beta_constraint": null, "gamma_constraint": null}, "name": "batch_normalization_179", "inbound_nodes": [[["conv3d_187", 0, 0, {}]]]}, {"class_name": "Add", "config": {"name": "add_37", "trainable": true, "dtype": "float32"}, "name": "add_37", "inbound_nodes": [[["batch_normalization_126", 0, 0, {}], ["re_lu_113", 0, 0, {}]]]}, {"class_name": "Add", "config": {"name": "add_53", "trainable": true, "dtype": "float32"}, "name": "add_53", "inbound_nodes": [[["batch_normalization_179", 0, 0, {}], ["re_lu_162", 0, 0, {}]]]}, {"class_name": "ReLU", "config": {"name": "re_lu_116", "trainable": true, "dtype": "float32", "max_value": null, "negative_slope": 0.0, "threshold": 0.0}, "name": "re_lu_116", "inbound_nodes": [[["add_37", 0, 0, {}]]]}, {"class_name": "ReLU", "config": {"name": "re_lu_165", "trainable": true, "dtype": "float32", "max_value": null, "negative_slope": 0.0, "threshold": 0.0}, "name": "re_lu_165", "inbound_nodes": [[["add_53", 0, 0, {}]]]}, {"class_name": "Sequential", "config": {"name": "sequential_89", "layers": [{"class_name": "InputLayer", "config": {"batch_input_shape": [null, null, null, null, 64], "dtype": "float32", "sparse": false, "ragged": false, "name": "conv3d_133_input"}}, {"class_name": "Conv3D", "config": {"name": "conv3d_133", "trainable": true, "dtype": "float32", "filters": 16, "kernel_size": [3, 1, 1], "strides": [1, 1, 1], "padding": "same", "data_format": "channels_last", "dilation_rate": [1, 1, 1], "groups": 1, "activation": "linear", "use_bias": false, "kernel_initializer": {"class_name": "GlorotUniform", "config": {"seed": null}}, "bias_initializer": {"class_name": "Zeros", "config": {}}, "kernel_regularizer": null, "bias_regularizer": null, "activity_regularizer": null, "kernel_constraint": null, "bias_constraint": null}}, {"class_name": "BatchNormalization", "config": {"name": "batch_normalization_127", "trainable": true, "dtype": "float32", "axis": [4], "momentum": 0.99, "epsilon": 0.001, "center": true, "scale": true, "beta_initializer": {"class_name": "Zeros", "config": {}}, "gamma_initializer": {"class_name": "Ones", "config": {}}, "moving_mean_initializer": {"class_name": "Zeros", "config": {}}, "moving_variance_initializer": {"class_name": "Ones", "config": {}}, "beta_regularizer": null, "gamma_regularizer": null, "beta_constraint": null, "gamma_constraint": null}}, {"class_name": "ReLU", "config": {"name": "re_lu_117", "trainable": true, "dtype": "float32", "max_value": null, "negative_slope": 0.0, "threshold": 0.0}}]}, "name": "sequential_89", "inbound_nodes": [[["re_lu_116", 0, 0, {}]]]}, {"class_name": "Sequential", "config": {"name": "sequential_126", "layers": [{"class_name": "InputLayer", "config": {"batch_input_shape": [null, null, null, null, 512], "dtype": "float32", "sparse": false, "ragged": false, "name": "conv3d_188_input"}}, {"class_name": "Conv3D", "config": {"name": "conv3d_188", "trainable": true, "dtype": "float32", "filters": 128, "kernel_size": [1, 1, 1], "strides": [1, 1, 1], "padding": "same", "data_format": "channels_last", "dilation_rate": [1, 1, 1], "groups": 1, "activation": "linear", "use_bias": false, "kernel_initializer": {"class_name": "GlorotUniform", "config": {"seed": null}}, "bias_initializer": {"class_name": "Zeros", "config": {}}, "kernel_regularizer": null, "bias_regularizer": null, "activity_regularizer": null, "kernel_constraint": null, "bias_constraint": null}}, {"class_name": "BatchNormalization", "config": {"name": "batch_normalization_180", "trainable": true, "dtype": "float32", "axis": [4], "momentum": 0.99, "epsilon": 0.001, "center": true, "scale": true, "beta_initializer": {"class_name": "Zeros", "config": {}}, "gamma_initializer": {"class_name": "Ones", "config": {}}, "moving_mean_initializer": {"class_name": "Zeros", "config": {}}, "moving_variance_initializer": {"class_name": "Ones", "config": {}}, "beta_regularizer": null, "gamma_regularizer": null, "beta_constraint": null, "gamma_constraint": null}}, {"class_name": "ReLU", "config": {"name": "re_lu_166", "trainable": true, "dtype": "float32", "max_value": null, "negative_slope": 0.0, "threshold": 0.0}}]}, "name": "sequential_126", "inbound_nodes": [[["re_lu_165", 0, 0, {}]]]}, {"class_name": "Sequential", "config": {"name": "sequential_90", "layers": [{"class_name": "InputLayer", "config": {"batch_input_shape": [null, null, null, null, 16], "dtype": "float32", "sparse": false, "ragged": false, "name": "conv3d_134_input"}}, {"class_name": "Conv3D", "config": {"name": "conv3d_134", "trainable": true, "dtype": "float32", "filters": 16, "kernel_size": [1, 3, 3], "strides": [1, 1, 1], "padding": "same", "data_format": "channels_last", "dilation_rate": [1, 1, 1], "groups": 1, "activation": "linear", "use_bias": false, "kernel_initializer": {"class_name": "GlorotUniform", "config": {"seed": null}}, "bias_initializer": {"class_name": "Zeros", "config": {}}, "kernel_regularizer": null, "bias_regularizer": null, "activity_regularizer": null, "kernel_constraint": null, "bias_constraint": null}}, {"class_name": "BatchNormalization", "config": {"name": "batch_normalization_128", "trainable": true, "dtype": "float32", "axis": [4], "momentum": 0.99, "epsilon": 0.001, "center": true, "scale": true, "beta_initializer": {"class_name": "Zeros", "config": {}}, "gamma_initializer": {"class_name": "Ones", "config": {}}, "moving_mean_initializer": {"class_name": "Zeros", "config": {}}, "moving_variance_initializer": {"class_name": "Ones", "config": {}}, "beta_regularizer": null, "gamma_regularizer": null, "beta_constraint": null, "gamma_constraint": null}}, {"class_name": "ReLU", "config": {"name": "re_lu_118", "trainable": true, "dtype": "float32", "max_value": null, "negative_slope": 0.0, "threshold": 0.0}}]}, "name": "sequential_90", "inbound_nodes": [[["sequential_89", 1, 0, {}]]]}, {"class_name": "Sequential", "config": {"name": "sequential_127", "layers": [{"class_name": "InputLayer", "config": {"batch_input_shape": [null, null, null, null, 128], "dtype": "float32", "sparse": false, "ragged": false, "name": "conv3d_189_input"}}, {"class_name": "Conv3D", "config": {"name": "conv3d_189", "trainable": true, "dtype": "float32", "filters": 128, "kernel_size": [1, 3, 3], "strides": [1, 1, 1], "padding": "same", "data_format": "channels_last", "dilation_rate": [1, 1, 1], "groups": 1, "activation": "linear", "use_bias": false, "kernel_initializer": {"class_name": "GlorotUniform", "config": {"seed": null}}, "bias_initializer": {"class_name": "Zeros", "config": {}}, "kernel_regularizer": null, "bias_regularizer": null, "activity_regularizer": null, "kernel_constraint": null, "bias_constraint": null}}, {"class_name": "BatchNormalization", "config": {"name": "batch_normalization_181", "trainable": true, "dtype": "float32", "axis": [4], "momentum": 0.99, "epsilon": 0.001, "center": true, "scale": true, "beta_initializer": {"class_name": "Zeros", "config": {}}, "gamma_initializer": {"class_name": "Ones", "config": {}}, "moving_mean_initializer": {"class_name": "Zeros", "config": {}}, "moving_variance_initializer": {"class_name": "Ones", "config": {}}, "beta_regularizer": null, "gamma_regularizer": null, "beta_constraint": null, "gamma_constraint": null}}, {"class_name": "ReLU", "config": {"name": "re_lu_167", "trainable": true, "dtype": "float32", "max_value": null, "negative_slope": 0.0, "threshold": 0.0}}]}, "name": "sequential_127", "inbound_nodes": [[["sequential_126", 1, 0, {}]]]}, {"class_name": "Conv3D", "config": {"name": "conv3d_135", "trainable": true, "dtype": "float32", "filters": 64, "kernel_size": [1, 1, 1], "strides": [1, 1, 1], "padding": "valid", "data_format": "channels_last", "dilation_rate": [1, 1, 1], "groups": 1, "activation": "linear", "use_bias": false, "kernel_initializer": {"class_name": "GlorotUniform", "config": {"seed": null}}, "bias_initializer": {"class_name": "Zeros", "config": {}}, "kernel_regularizer": null, "bias_regularizer": null, "activity_regularizer": null, "kernel_constraint": null, "bias_constraint": null}, "name": "conv3d_135", "inbound_nodes": [[["sequential_90", 1, 0, {}]]]}, {"class_name": "Conv3D", "config": {"name": "conv3d_190", "trainable": true, "dtype": "float32", "filters": 512, "kernel_size": [1, 1, 1], "strides": [1, 1, 1], "padding": "valid", "data_format": "channels_last", "dilation_rate": [1, 1, 1], "groups": 1, "activation": "linear", "use_bias": false, "kernel_initializer": {"class_name": "GlorotUniform", "config": {"seed": null}}, "bias_initializer": {"class_name": "Zeros", "config": {}}, "kernel_regularizer": null, "bias_regularizer": null, "activity_regularizer": null, "kernel_constraint": null, "bias_constraint": null}, "name": "conv3d_190", "inbound_nodes": [[["sequential_127", 1, 0, {}]]]}, {"class_name": "BatchNormalization", "config": {"name": "batch_normalization_129", "trainable": true, "dtype": "float32", "axis": [4], "momentum": 0.99, "epsilon": 0.001, "center": true, "scale": true, "beta_initializer": {"class_name": "Zeros", "config": {}}, "gamma_initializer": {"class_name": "Ones", "config": {}}, "moving_mean_initializer": {"class_name": "Zeros", "config": {}}, "moving_variance_initializer": {"class_name": "Ones", "config": {}}, "beta_regularizer": null, "gamma_regularizer": null, "beta_constraint": null, "gamma_constraint": null}, "name": "batch_normalization_129", "inbound_nodes": [[["conv3d_135", 0, 0, {}]]]}, {"class_name": "BatchNormalization", "config": {"name": "batch_normalization_182", "trainable": true, "dtype": "float32", "axis": [4], "momentum": 0.99, "epsilon": 0.001, "center": true, "scale": true, "beta_initializer": {"class_name": "Zeros", "config": {}}, "gamma_initializer": {"class_name": "Ones", "config": {}}, "moving_mean_initializer": {"class_name": "Zeros", "config": {}}, "moving_variance_initializer": {"class_name": "Ones", "config": {}}, "beta_regularizer": null, "gamma_regularizer": null, "beta_constraint": null, "gamma_constraint": null}, "name": "batch_normalization_182", "inbound_nodes": [[["conv3d_190", 0, 0, {}]]]}, {"class_name": "Add", "config": {"name": "add_38", "trainable": true, "dtype": "float32"}, "name": "add_38", "inbound_nodes": [[["batch_normalization_129", 0, 0, {}], ["re_lu_116", 0, 0, {}]]]}, {"class_name": "Add", "config": {"name": "add_54", "trainable": true, "dtype": "float32"}, "name": "add_54", "inbound_nodes": [[["batch_normalization_182", 0, 0, {}], ["re_lu_165", 0, 0, {}]]]}, {"class_name": "ReLU", "config": {"name": "re_lu_119", "trainable": true, "dtype": "float32", "max_value": null, "negative_slope": 0.0, "threshold": 0.0}, "name": "re_lu_119", "inbound_nodes": [[["add_38", 0, 0, {}]]]}, {"class_name": "ReLU", "config": {"name": "re_lu_168", "trainable": true, "dtype": "float32", "max_value": null, "negative_slope": 0.0, "threshold": 0.0}, "name": "re_lu_168", "inbound_nodes": [[["add_54", 0, 0, {}]]]}, {"class_name": "Conv3D", "config": {"name": "conv3d_136", "trainable": true, "dtype": "float32", "filters": 128, "kernel_size": [5, 1, 1], "strides": [8, 1, 1], "padding": "same", "data_format": "channels_last", "dilation_rate": [1, 1, 1], "groups": 1, "activation": "linear", "use_bias": false, "kernel_initializer": {"class_name": "GlorotUniform", "config": {"seed": null}}, "bias_initializer": {"class_name": "Zeros", "config": {}}, "kernel_regularizer": null, "bias_regularizer": null, "activity_regularizer": null, "kernel_constraint": null, "bias_constraint": null}, "name": "conv3d_136", "inbound_nodes": [[["re_lu_119", 0, 0, {}]]]}, {"class_name": "Concatenate", "config": {"name": "concatenate_7", "trainable": true, "dtype": "float32", "axis": -1}, "name": "concatenate_7", "inbound_nodes": [[["re_lu_168", 0, 0, {}], ["conv3d_136", 0, 0, {}]]]}, {"class_name": "Sequential", "config": {"name": "sequential_92", "layers": [{"class_name": "InputLayer", "config": {"batch_input_shape": [null, null, null, null, 64], "dtype": "float32", "sparse": false, "ragged": false, "name": "conv3d_138_input"}}, {"class_name": "Conv3D", "config": {"name": "conv3d_138", "trainable": true, "dtype": "float32", "filters": 32, "kernel_size": [3, 1, 1], "strides": [1, 1, 1], "padding": "same", "data_format": "channels_last", "dilation_rate": [1, 1, 1], "groups": 1, "activation": "linear", "use_bias": false, "kernel_initializer": {"class_name": "GlorotUniform", "config": {"seed": null}}, "bias_initializer": {"class_name": "Zeros", "config": {}}, "kernel_regularizer": null, "bias_regularizer": null, "activity_regularizer": null, "kernel_constraint": null, "bias_constraint": null}}, {"class_name": "BatchNormalization", "config": {"name": "batch_normalization_131", "trainable": true, "dtype": "float32", "axis": [4], "momentum": 0.99, "epsilon": 0.001, "center": true, "scale": true, "beta_initializer": {"class_name": "Zeros", "config": {}}, "gamma_initializer": {"class_name": "Ones", "config": {}}, "moving_mean_initializer": {"class_name": "Zeros", "config": {}}, "moving_variance_initializer": {"class_name": "Ones", "config": {}}, "beta_regularizer": null, "gamma_regularizer": null, "beta_constraint": null, "gamma_constraint": null}}, {"class_name": "ReLU", "config": {"name": "re_lu_120", "trainable": true, "dtype": "float32", "max_value": null, "negative_slope": 0.0, "threshold": 0.0}}]}, "name": "sequential_92", "inbound_nodes": [[["re_lu_119", 0, 0, {}]]]}, {"class_name": "Sequential", "config": {"name": "sequential_129", "layers": [{"class_name": "InputLayer", "config": {"batch_input_shape": [null, null, null, null, 640], "dtype": "float32", "sparse": false, "ragged": false, "name": "conv3d_192_input"}}, {"class_name": "Conv3D", "config": {"name": "conv3d_192", "trainable": true, "dtype": "float32", "filters": 256, "kernel_size": [1, 1, 1], "strides": [1, 1, 1], "padding": "same", "data_format": "channels_last", "dilation_rate": [1, 1, 1], "groups": 1, "activation": "linear", "use_bias": false, "kernel_initializer": {"class_name": "GlorotUniform", "config": {"seed": null}}, "bias_initializer": {"class_name": "Zeros", "config": {}}, "kernel_regularizer": null, "bias_regularizer": null, "activity_regularizer": null, "kernel_constraint": null, "bias_constraint": null}}, {"class_name": "BatchNormalization", "config": {"name": "batch_normalization_184", "trainable": true, "dtype": "float32", "axis": [4], "momentum": 0.99, "epsilon": 0.001, "center": true, "scale": true, "beta_initializer": {"class_name": "Zeros", "config": {}}, "gamma_initializer": {"class_name": "Ones", "config": {}}, "moving_mean_initializer": {"class_name": "Zeros", "config": {}}, "moving_variance_initializer": {"class_name": "Ones", "config": {}}, "beta_regularizer": null, "gamma_regularizer": null, "beta_constraint": null, "gamma_constraint": null}}, {"class_name": "ReLU", "config": {"name": "re_lu_169", "trainable": true, "dtype": "float32", "max_value": null, "negative_slope": 0.0, "threshold": 0.0}}]}, "name": "sequential_129", "inbound_nodes": [[["concatenate_7", 0, 0, {}]]]}, {"class_name": "Sequential", "config": {"name": "sequential_93", "layers": [{"class_name": "InputLayer", "config": {"batch_input_shape": [null, null, null, null, 32], "dtype": "float32", "sparse": false, "ragged": false, "name": "conv3d_139_input"}}, {"class_name": "Conv3D", "config": {"name": "conv3d_139", "trainable": true, "dtype": "float32", "filters": 32, "kernel_size": [1, 3, 3], "strides": [1, 2, 2], "padding": "same", "data_format": "channels_last", "dilation_rate": [1, 1, 1], "groups": 1, "activation": "linear", "use_bias": false, "kernel_initializer": {"class_name": "GlorotUniform", "config": {"seed": null}}, "bias_initializer": {"class_name": "Zeros", "config": {}}, "kernel_regularizer": null, "bias_regularizer": null, "activity_regularizer": null, "kernel_constraint": null, "bias_constraint": null}}, {"class_name": "BatchNormalization", "config": {"name": "batch_normalization_132", "trainable": true, "dtype": "float32", "axis": [4], "momentum": 0.99, "epsilon": 0.001, "center": true, "scale": true, "beta_initializer": {"class_name": "Zeros", "config": {}}, "gamma_initializer": {"class_name": "Ones", "config": {}}, "moving_mean_initializer": {"class_name": "Zeros", "config": {}}, "moving_variance_initializer": {"class_name": "Ones", "config": {}}, "beta_regularizer": null, "gamma_regularizer": null, "beta_constraint": null, "gamma_constraint": null}}, {"class_name": "ReLU", "config": {"name": "re_lu_121", "trainable": true, "dtype": "float32", "max_value": null, "negative_slope": 0.0, "threshold": 0.0}}]}, "name": "sequential_93", "inbound_nodes": [[["sequential_92", 1, 0, {}]]]}, {"class_name": "Sequential", "config": {"name": "sequential_130", "layers": [{"class_name": "InputLayer", "config": {"batch_input_shape": [null, null, null, null, 256], "dtype": "float32", "sparse": false, "ragged": false, "name": "conv3d_193_input"}}, {"class_name": "Conv3D", "config": {"name": "conv3d_193", "trainable": true, "dtype": "float32", "filters": 256, "kernel_size": [1, 3, 3], "strides": [1, 2, 2], "padding": "same", "data_format": "channels_last", "dilation_rate": [1, 1, 1], "groups": 1, "activation": "linear", "use_bias": false, "kernel_initializer": {"class_name": "GlorotUniform", "config": {"seed": null}}, "bias_initializer": {"class_name": "Zeros", "config": {}}, "kernel_regularizer": null, "bias_regularizer": null, "activity_regularizer": null, "kernel_constraint": null, "bias_constraint": null}}, {"class_name": "BatchNormalization", "config": {"name": "batch_normalization_185", "trainable": true, "dtype": "float32", "axis": [4], "momentum": 0.99, "epsilon": 0.001, "center": true, "scale": true, "beta_initializer": {"class_name": "Zeros", "config": {}}, "gamma_initializer": {"class_name": "Ones", "config": {}}, "moving_mean_initializer": {"class_name": "Zeros", "config": {}}, "moving_variance_initializer": {"class_name": "Ones", "config": {}}, "beta_regularizer": null, "gamma_regularizer": null, "beta_constraint": null, "gamma_constraint": null}}, {"class_name": "ReLU", "config": {"name": "re_lu_170", "trainable": true, "dtype": "float32", "max_value": null, "negative_slope": 0.0, "threshold": 0.0}}]}, "name": "sequential_130", "inbound_nodes": [[["sequential_129", 1, 0, {}]]]}, {"class_name": "Conv3D", "config": {"name": "conv3d_140", "trainable": true, "dtype": "float32", "filters": 128, "kernel_size": [1, 1, 1], "strides": [1, 1, 1], "padding": "valid", "data_format": "channels_last", "dilation_rate": [1, 1, 1], "groups": 1, "activation": "linear", "use_bias": false, "kernel_initializer": {"class_name": "GlorotUniform", "config": {"seed": null}}, "bias_initializer": {"class_name": "Zeros", "config": {}}, "kernel_regularizer": null, "bias_regularizer": null, "activity_regularizer": null, "kernel_constraint": null, "bias_constraint": null}, "name": "conv3d_140", "inbound_nodes": [[["sequential_93", 1, 0, {}]]]}, {"class_name": "Conv3D", "config": {"name": "conv3d_194", "trainable": true, "dtype": "float32", "filters": 1024, "kernel_size": [1, 1, 1], "strides": [1, 1, 1], "padding": "valid", "data_format": "channels_last", "dilation_rate": [1, 1, 1], "groups": 1, "activation": "linear", "use_bias": false, "kernel_initializer": {"class_name": "GlorotUniform", "config": {"seed": null}}, "bias_initializer": {"class_name": "Zeros", "config": {}}, "kernel_regularizer": null, "bias_regularizer": null, "activity_regularizer": null, "kernel_constraint": null, "bias_constraint": null}, "name": "conv3d_194", "inbound_nodes": [[["sequential_130", 1, 0, {}]]]}, {"class_name": "BatchNormalization", "config": {"name": "batch_normalization_133", "trainable": true, "dtype": "float32", "axis": [4], "momentum": 0.99, "epsilon": 0.001, "center": true, "scale": true, "beta_initializer": {"class_name": "Zeros", "config": {}}, "gamma_initializer": {"class_name": "Ones", "config": {}}, "moving_mean_initializer": {"class_name": "Zeros", "config": {}}, "moving_variance_initializer": {"class_name": "Ones", "config": {}}, "beta_regularizer": null, "gamma_regularizer": null, "beta_constraint": null, "gamma_constraint": null}, "name": "batch_normalization_133", "inbound_nodes": [[["conv3d_140", 0, 0, {}]]]}, {"class_name": "Sequential", "config": {"name": "sequential_91", "layers": [{"class_name": "InputLayer", "config": {"batch_input_shape": [null, null, null, null, 64], "dtype": "float32", "sparse": false, "ragged": false, "name": "conv3d_137_input"}}, {"class_name": "Conv3D", "config": {"name": "conv3d_137", "trainable": true, "dtype": "float32", "filters": 128, "kernel_size": [1, 1, 1], "strides": [1, 2, 2], "padding": "valid", "data_format": "channels_last", "dilation_rate": [1, 1, 1], "groups": 1, "activation": "linear", "use_bias": false, "kernel_initializer": {"class_name": "GlorotUniform", "config": {"seed": null}}, "bias_initializer": {"class_name": "Zeros", "config": {}}, "kernel_regularizer": null, "bias_regularizer": null, "activity_regularizer": null, "kernel_constraint": null, "bias_constraint": null}}, {"class_name": "BatchNormalization", "config": {"name": "batch_normalization_130", "trainable": true, "dtype": "float32", "axis": [4], "momentum": 0.99, "epsilon": 0.001, "center": true, "scale": true, "beta_initializer": {"class_name": "Zeros", "config": {}}, "gamma_initializer": {"class_name": "Ones", "config": {}}, "moving_mean_initializer": {"class_name": "Zeros", "config": {}}, "moving_variance_initializer": {"class_name": "Ones", "config": {}}, "beta_regularizer": null, "gamma_regularizer": null, "beta_constraint": null, "gamma_constraint": null}}]}, "name": "sequential_91", "inbound_nodes": [[["re_lu_119", 0, 0, {}]]]}, {"class_name": "BatchNormalization", "config": {"name": "batch_normalization_186", "trainable": true, "dtype": "float32", "axis": [4], "momentum": 0.99, "epsilon": 0.001, "center": true, "scale": true, "beta_initializer": {"class_name": "Zeros", "config": {}}, "gamma_initializer": {"class_name": "Ones", "config": {}}, "moving_mean_initializer": {"class_name": "Zeros", "config": {}}, "moving_variance_initializer": {"class_name": "Ones", "config": {}}, "beta_regularizer": null, "gamma_regularizer": null, "beta_constraint": null, "gamma_constraint": null}, "name": "batch_normalization_186", "inbound_nodes": [[["conv3d_194", 0, 0, {}]]]}, {"class_name": "Sequential", "config": {"name": "sequential_128", "layers": [{"class_name": "InputLayer", "config": {"batch_input_shape": [null, null, null, null, 640], "dtype": "float32", "sparse": false, "ragged": false, "name": "conv3d_191_input"}}, {"class_name": "Conv3D", "config": {"name": "conv3d_191", "trainable": true, "dtype": "float32", "filters": 1024, "kernel_size": [1, 1, 1], "strides": [1, 2, 2], "padding": "valid", "data_format": "channels_last", "dilation_rate": [1, 1, 1], "groups": 1, "activation": "linear", "use_bias": false, "kernel_initializer": {"class_name": "GlorotUniform", "config": {"seed": null}}, "bias_initializer": {"class_name": "Zeros", "config": {}}, "kernel_regularizer": null, "bias_regularizer": null, "activity_regularizer": null, "kernel_constraint": null, "bias_constraint": null}}, {"class_name": "BatchNormalization", "config": {"name": "batch_normalization_183", "trainable": true, "dtype": "float32", "axis": [4], "momentum": 0.99, "epsilon": 0.001, "center": true, "scale": true, "beta_initializer": {"class_name": "Zeros", "config": {}}, "gamma_initializer": {"class_name": "Ones", "config": {}}, "moving_mean_initializer": {"class_name": "Zeros", "config": {}}, "moving_variance_initializer": {"class_name": "Ones", "config": {}}, "beta_regularizer": null, "gamma_regularizer": null, "beta_constraint": null, "gamma_constraint": null}}]}, "name": "sequential_128", "inbound_nodes": [[["concatenate_7", 0, 0, {}]]]}, {"class_name": "Add", "config": {"name": "add_39", "trainable": true, "dtype": "float32"}, "name": "add_39", "inbound_nodes": [[["batch_normalization_133", 0, 0, {}], ["sequential_91", 1, 0, {}]]]}, {"class_name": "Add", "config": {"name": "add_55", "trainable": true, "dtype": "float32"}, "name": "add_55", "inbound_nodes": [[["batch_normalization_186", 0, 0, {}], ["sequential_128", 1, 0, {}]]]}, {"class_name": "ReLU", "config": {"name": "re_lu_122", "trainable": true, "dtype": "float32", "max_value": null, "negative_slope": 0.0, "threshold": 0.0}, "name": "re_lu_122", "inbound_nodes": [[["add_39", 0, 0, {}]]]}, {"class_name": "ReLU", "config": {"name": "re_lu_171", "trainable": true, "dtype": "float32", "max_value": null, "negative_slope": 0.0, "threshold": 0.0}, "name": "re_lu_171", "inbound_nodes": [[["add_55", 0, 0, {}]]]}, {"class_name": "Sequential", "config": {"name": "sequential_94", "layers": [{"class_name": "InputLayer", "config": {"batch_input_shape": [null, null, null, null, 128], "dtype": "float32", "sparse": false, "ragged": false, "name": "conv3d_141_input"}}, {"class_name": "Conv3D", "config": {"name": "conv3d_141", "trainable": true, "dtype": "float32", "filters": 32, "kernel_size": [3, 1, 1], "strides": [1, 1, 1], "padding": "same", "data_format": "channels_last", "dilation_rate": [1, 1, 1], "groups": 1, "activation": "linear", "use_bias": false, "kernel_initializer": {"class_name": "GlorotUniform", "config": {"seed": null}}, "bias_initializer": {"class_name": "Zeros", "config": {}}, "kernel_regularizer": null, "bias_regularizer": null, "activity_regularizer": null, "kernel_constraint": null, "bias_constraint": null}}, {"class_name": "BatchNormalization", "config": {"name": "batch_normalization_134", "trainable": true, "dtype": "float32", "axis": [4], "momentum": 0.99, "epsilon": 0.001, "center": true, "scale": true, "beta_initializer": {"class_name": "Zeros", "config": {}}, "gamma_initializer": {"class_name": "Ones", "config": {}}, "moving_mean_initializer": {"class_name": "Zeros", "config": {}}, "moving_variance_initializer": {"class_name": "Ones", "config": {}}, "beta_regularizer": null, "gamma_regularizer": null, "beta_constraint": null, "gamma_constraint": null}}, {"class_name": "ReLU", "config": {"name": "re_lu_123", "trainable": true, "dtype": "float32", "max_value": null, "negative_slope": 0.0, "threshold": 0.0}}]}, "name": "sequential_94", "inbound_nodes": [[["re_lu_122", 0, 0, {}]]]}, {"class_name": "Sequential", "config": {"name": "sequential_131", "layers": [{"class_name": "InputLayer", "config": {"batch_input_shape": [null, null, null, null, 1024], "dtype": "float32", "sparse": false, "ragged": false, "name": "conv3d_195_input"}}, {"class_name": "Conv3D", "config": {"name": "conv3d_195", "trainable": true, "dtype": "float32", "filters": 256, "kernel_size": [1, 1, 1], "strides": [1, 1, 1], "padding": "same", "data_format": "channels_last", "dilation_rate": [1, 1, 1], "groups": 1, "activation": "linear", "use_bias": false, "kernel_initializer": {"class_name": "GlorotUniform", "config": {"seed": null}}, "bias_initializer": {"class_name": "Zeros", "config": {}}, "kernel_regularizer": null, "bias_regularizer": null, "activity_regularizer": null, "kernel_constraint": null, "bias_constraint": null}}, {"class_name": "BatchNormalization", "config": {"name": "batch_normalization_187", "trainable": true, "dtype": "float32", "axis": [4], "momentum": 0.99, "epsilon": 0.001, "center": true, "scale": true, "beta_initializer": {"class_name": "Zeros", "config": {}}, "gamma_initializer": {"class_name": "Ones", "config": {}}, "moving_mean_initializer": {"class_name": "Zeros", "config": {}}, "moving_variance_initializer": {"class_name": "Ones", "config": {}}, "beta_regularizer": null, "gamma_regularizer": null, "beta_constraint": null, "gamma_constraint": null}}, {"class_name": "ReLU", "config": {"name": "re_lu_172", "trainable": true, "dtype": "float32", "max_value": null, "negative_slope": 0.0, "threshold": 0.0}}]}, "name": "sequential_131", "inbound_nodes": [[["re_lu_171", 0, 0, {}]]]}, {"class_name": "Sequential", "config": {"name": "sequential_95", "layers": [{"class_name": "InputLayer", "config": {"batch_input_shape": [null, null, null, null, 32], "dtype": "float32", "sparse": false, "ragged": false, "name": "conv3d_142_input"}}, {"class_name": "Conv3D", "config": {"name": "conv3d_142", "trainable": true, "dtype": "float32", "filters": 32, "kernel_size": [1, 3, 3], "strides": [1, 1, 1], "padding": "same", "data_format": "channels_last", "dilation_rate": [1, 1, 1], "groups": 1, "activation": "linear", "use_bias": false, "kernel_initializer": {"class_name": "GlorotUniform", "config": {"seed": null}}, "bias_initializer": {"class_name": "Zeros", "config": {}}, "kernel_regularizer": null, "bias_regularizer": null, "activity_regularizer": null, "kernel_constraint": null, "bias_constraint": null}}, {"class_name": "BatchNormalization", "config": {"name": "batch_normalization_135", "trainable": true, "dtype": "float32", "axis": [4], "momentum": 0.99, "epsilon": 0.001, "center": true, "scale": true, "beta_initializer": {"class_name": "Zeros", "config": {}}, "gamma_initializer": {"class_name": "Ones", "config": {}}, "moving_mean_initializer": {"class_name": "Zeros", "config": {}}, "moving_variance_initializer": {"class_name": "Ones", "config": {}}, "beta_regularizer": null, "gamma_regularizer": null, "beta_constraint": null, "gamma_constraint": null}}, {"class_name": "ReLU", "config": {"name": "re_lu_124", "trainable": true, "dtype": "float32", "max_value": null, "negative_slope": 0.0, "threshold": 0.0}}]}, "name": "sequential_95", "inbound_nodes": [[["sequential_94", 1, 0, {}]]]}, {"class_name": "Sequential", "config": {"name": "sequential_132", "layers": [{"class_name": "InputLayer", "config": {"batch_input_shape": [null, null, null, null, 256], "dtype": "float32", "sparse": false, "ragged": false, "name": "conv3d_196_input"}}, {"class_name": "Conv3D", "config": {"name": "conv3d_196", "trainable": true, "dtype": "float32", "filters": 256, "kernel_size": [1, 3, 3], "strides": [1, 1, 1], "padding": "same", "data_format": "channels_last", "dilation_rate": [1, 1, 1], "groups": 1, "activation": "linear", "use_bias": false, "kernel_initializer": {"class_name": "GlorotUniform", "config": {"seed": null}}, "bias_initializer": {"class_name": "Zeros", "config": {}}, "kernel_regularizer": null, "bias_regularizer": null, "activity_regularizer": null, "kernel_constraint": null, "bias_constraint": null}}, {"class_name": "BatchNormalization", "config": {"name": "batch_normalization_188", "trainable": true, "dtype": "float32", "axis": [4], "momentum": 0.99, "epsilon": 0.001, "center": true, "scale": true, "beta_initializer": {"class_name": "Zeros", "config": {}}, "gamma_initializer": {"class_name": "Ones", "config": {}}, "moving_mean_initializer": {"class_name": "Zeros", "config": {}}, "moving_variance_initializer": {"class_name": "Ones", "config": {}}, "beta_regularizer": null, "gamma_regularizer": null, "beta_constraint": null, "gamma_constraint": null}}, {"class_name": "ReLU", "config": {"name": "re_lu_173", "trainable": true, "dtype": "float32", "max_value": null, "negative_slope": 0.0, "threshold": 0.0}}]}, "name": "sequential_132", "inbound_nodes": [[["sequential_131", 1, 0, {}]]]}, {"class_name": "Conv3D", "config": {"name": "conv3d_143", "trainable": true, "dtype": "float32", "filters": 128, "kernel_size": [1, 1, 1], "strides": [1, 1, 1], "padding": "valid", "data_format": "channels_last", "dilation_rate": [1, 1, 1], "groups": 1, "activation": "linear", "use_bias": false, "kernel_initializer": {"class_name": "GlorotUniform", "config": {"seed": null}}, "bias_initializer": {"class_name": "Zeros", "config": {}}, "kernel_regularizer": null, "bias_regularizer": null, "activity_regularizer": null, "kernel_constraint": null, "bias_constraint": null}, "name": "conv3d_143", "inbound_nodes": [[["sequential_95", 1, 0, {}]]]}, {"class_name": "Conv3D", "config": {"name": "conv3d_197", "trainable": true, "dtype": "float32", "filters": 1024, "kernel_size": [1, 1, 1], "strides": [1, 1, 1], "padding": "valid", "data_format": "channels_last", "dilation_rate": [1, 1, 1], "groups": 1, "activation": "linear", "use_bias": false, "kernel_initializer": {"class_name": "GlorotUniform", "config": {"seed": null}}, "bias_initializer": {"class_name": "Zeros", "config": {}}, "kernel_regularizer": null, "bias_regularizer": null, "activity_regularizer": null, "kernel_constraint": null, "bias_constraint": null}, "name": "conv3d_197", "inbound_nodes": [[["sequential_132", 1, 0, {}]]]}, {"class_name": "BatchNormalization", "config": {"name": "batch_normalization_136", "trainable": true, "dtype": "float32", "axis": [4], "momentum": 0.99, "epsilon": 0.001, "center": true, "scale": true, "beta_initializer": {"class_name": "Zeros", "config": {}}, "gamma_initializer": {"class_name": "Ones", "config": {}}, "moving_mean_initializer": {"class_name": "Zeros", "config": {}}, "moving_variance_initializer": {"class_name": "Ones", "config": {}}, "beta_regularizer": null, "gamma_regularizer": null, "beta_constraint": null, "gamma_constraint": null}, "name": "batch_normalization_136", "inbound_nodes": [[["conv3d_143", 0, 0, {}]]]}, {"class_name": "BatchNormalization", "config": {"name": "batch_normalization_189", "trainable": true, "dtype": "float32", "axis": [4], "momentum": 0.99, "epsilon": 0.001, "center": true, "scale": true, "beta_initializer": {"class_name": "Zeros", "config": {}}, "gamma_initializer": {"class_name": "Ones", "config": {}}, "moving_mean_initializer": {"class_name": "Zeros", "config": {}}, "moving_variance_initializer": {"class_name": "Ones", "config": {}}, "beta_regularizer": null, "gamma_regularizer": null, "beta_constraint": null, "gamma_constraint": null}, "name": "batch_normalization_189", "inbound_nodes": [[["conv3d_197", 0, 0, {}]]]}, {"class_name": "Add", "config": {"name": "add_40", "trainable": true, "dtype": "float32"}, "name": "add_40", "inbound_nodes": [[["batch_normalization_136", 0, 0, {}], ["re_lu_122", 0, 0, {}]]]}, {"class_name": "Add", "config": {"name": "add_56", "trainable": true, "dtype": "float32"}, "name": "add_56", "inbound_nodes": [[["batch_normalization_189", 0, 0, {}], ["re_lu_171", 0, 0, {}]]]}, {"class_name": "ReLU", "config": {"name": "re_lu_125", "trainable": true, "dtype": "float32", "max_value": null, "negative_slope": 0.0, "threshold": 0.0}, "name": "re_lu_125", "inbound_nodes": [[["add_40", 0, 0, {}]]]}, {"class_name": "ReLU", "config": {"name": "re_lu_174", "trainable": true, "dtype": "float32", "max_value": null, "negative_slope": 0.0, "threshold": 0.0}, "name": "re_lu_174", "inbound_nodes": [[["add_56", 0, 0, {}]]]}, {"class_name": "Sequential", "config": {"name": "sequential_96", "layers": [{"class_name": "InputLayer", "config": {"batch_input_shape": [null, null, null, null, 128], "dtype": "float32", "sparse": false, "ragged": false, "name": "conv3d_144_input"}}, {"class_name": "Conv3D", "config": {"name": "conv3d_144", "trainable": true, "dtype": "float32", "filters": 32, "kernel_size": [3, 1, 1], "strides": [1, 1, 1], "padding": "same", "data_format": "channels_last", "dilation_rate": [1, 1, 1], "groups": 1, "activation": "linear", "use_bias": false, "kernel_initializer": {"class_name": "GlorotUniform", "config": {"seed": null}}, "bias_initializer": {"class_name": "Zeros", "config": {}}, "kernel_regularizer": null, "bias_regularizer": null, "activity_regularizer": null, "kernel_constraint": null, "bias_constraint": null}}, {"class_name": "BatchNormalization", "config": {"name": "batch_normalization_137", "trainable": true, "dtype": "float32", "axis": [4], "momentum": 0.99, "epsilon": 0.001, "center": true, "scale": true, "beta_initializer": {"class_name": "Zeros", "config": {}}, "gamma_initializer": {"class_name": "Ones", "config": {}}, "moving_mean_initializer": {"class_name": "Zeros", "config": {}}, "moving_variance_initializer": {"class_name": "Ones", "config": {}}, "beta_regularizer": null, "gamma_regularizer": null, "beta_constraint": null, "gamma_constraint": null}}, {"class_name": "ReLU", "config": {"name": "re_lu_126", "trainable": true, "dtype": "float32", "max_value": null, "negative_slope": 0.0, "threshold": 0.0}}]}, "name": "sequential_96", "inbound_nodes": [[["re_lu_125", 0, 0, {}]]]}, {"class_name": "Sequential", "config": {"name": "sequential_133", "layers": [{"class_name": "InputLayer", "config": {"batch_input_shape": [null, null, null, null, 1024], "dtype": "float32", "sparse": false, "ragged": false, "name": "conv3d_198_input"}}, {"class_name": "Conv3D", "config": {"name": "conv3d_198", "trainable": true, "dtype": "float32", "filters": 256, "kernel_size": [1, 1, 1], "strides": [1, 1, 1], "padding": "same", "data_format": "channels_last", "dilation_rate": [1, 1, 1], "groups": 1, "activation": "linear", "use_bias": false, "kernel_initializer": {"class_name": "GlorotUniform", "config": {"seed": null}}, "bias_initializer": {"class_name": "Zeros", "config": {}}, "kernel_regularizer": null, "bias_regularizer": null, "activity_regularizer": null, "kernel_constraint": null, "bias_constraint": null}}, {"class_name": "BatchNormalization", "config": {"name": "batch_normalization_190", "trainable": true, "dtype": "float32", "axis": [4], "momentum": 0.99, "epsilon": 0.001, "center": true, "scale": true, "beta_initializer": {"class_name": "Zeros", "config": {}}, "gamma_initializer": {"class_name": "Ones", "config": {}}, "moving_mean_initializer": {"class_name": "Zeros", "config": {}}, "moving_variance_initializer": {"class_name": "Ones", "config": {}}, "beta_regularizer": null, "gamma_regularizer": null, "beta_constraint": null, "gamma_constraint": null}}, {"class_name": "ReLU", "config": {"name": "re_lu_175", "trainable": true, "dtype": "float32", "max_value": null, "negative_slope": 0.0, "threshold": 0.0}}]}, "name": "sequential_133", "inbound_nodes": [[["re_lu_174", 0, 0, {}]]]}, {"class_name": "Sequential", "config": {"name": "sequential_97", "layers": [{"class_name": "InputLayer", "config": {"batch_input_shape": [null, null, null, null, 32], "dtype": "float32", "sparse": false, "ragged": false, "name": "conv3d_145_input"}}, {"class_name": "Conv3D", "config": {"name": "conv3d_145", "trainable": true, "dtype": "float32", "filters": 32, "kernel_size": [1, 3, 3], "strides": [1, 1, 1], "padding": "same", "data_format": "channels_last", "dilation_rate": [1, 1, 1], "groups": 1, "activation": "linear", "use_bias": false, "kernel_initializer": {"class_name": "GlorotUniform", "config": {"seed": null}}, "bias_initializer": {"class_name": "Zeros", "config": {}}, "kernel_regularizer": null, "bias_regularizer": null, "activity_regularizer": null, "kernel_constraint": null, "bias_constraint": null}}, {"class_name": "BatchNormalization", "config": {"name": "batch_normalization_138", "trainable": true, "dtype": "float32", "axis": [4], "momentum": 0.99, "epsilon": 0.001, "center": true, "scale": true, "beta_initializer": {"class_name": "Zeros", "config": {}}, "gamma_initializer": {"class_name": "Ones", "config": {}}, "moving_mean_initializer": {"class_name": "Zeros", "config": {}}, "moving_variance_initializer": {"class_name": "Ones", "config": {}}, "beta_regularizer": null, "gamma_regularizer": null, "beta_constraint": null, "gamma_constraint": null}}, {"class_name": "ReLU", "config": {"name": "re_lu_127", "trainable": true, "dtype": "float32", "max_value": null, "negative_slope": 0.0, "threshold": 0.0}}]}, "name": "sequential_97", "inbound_nodes": [[["sequential_96", 1, 0, {}]]]}, {"class_name": "Sequential", "config": {"name": "sequential_134", "layers": [{"class_name": "InputLayer", "config": {"batch_input_shape": [null, null, null, null, 256], "dtype": "float32", "sparse": false, "ragged": false, "name": "conv3d_199_input"}}, {"class_name": "Conv3D", "config": {"name": "conv3d_199", "trainable": true, "dtype": "float32", "filters": 256, "kernel_size": [1, 3, 3], "strides": [1, 1, 1], "padding": "same", "data_format": "channels_last", "dilation_rate": [1, 1, 1], "groups": 1, "activation": "linear", "use_bias": false, "kernel_initializer": {"class_name": "GlorotUniform", "config": {"seed": null}}, "bias_initializer": {"class_name": "Zeros", "config": {}}, "kernel_regularizer": null, "bias_regularizer": null, "activity_regularizer": null, "kernel_constraint": null, "bias_constraint": null}}, {"class_name": "BatchNormalization", "config": {"name": "batch_normalization_191", "trainable": true, "dtype": "float32", "axis": [4], "momentum": 0.99, "epsilon": 0.001, "center": true, "scale": true, "beta_initializer": {"class_name": "Zeros", "config": {}}, "gamma_initializer": {"class_name": "Ones", "config": {}}, "moving_mean_initializer": {"class_name": "Zeros", "config": {}}, "moving_variance_initializer": {"class_name": "Ones", "config": {}}, "beta_regularizer": null, "gamma_regularizer": null, "beta_constraint": null, "gamma_constraint": null}}, {"class_name": "ReLU", "config": {"name": "re_lu_176", "trainable": true, "dtype": "float32", "max_value": null, "negative_slope": 0.0, "threshold": 0.0}}]}, "name": "sequential_134", "inbound_nodes": [[["sequential_133", 1, 0, {}]]]}, {"class_name": "Conv3D", "config": {"name": "conv3d_146", "trainable": true, "dtype": "float32", "filters": 128, "kernel_size": [1, 1, 1], "strides": [1, 1, 1], "padding": "valid", "data_format": "channels_last", "dilation_rate": [1, 1, 1], "groups": 1, "activation": "linear", "use_bias": false, "kernel_initializer": {"class_name": "GlorotUniform", "config": {"seed": null}}, "bias_initializer": {"class_name": "Zeros", "config": {}}, "kernel_regularizer": null, "bias_regularizer": null, "activity_regularizer": null, "kernel_constraint": null, "bias_constraint": null}, "name": "conv3d_146", "inbound_nodes": [[["sequential_97", 1, 0, {}]]]}, {"class_name": "Conv3D", "config": {"name": "conv3d_200", "trainable": true, "dtype": "float32", "filters": 1024, "kernel_size": [1, 1, 1], "strides": [1, 1, 1], "padding": "valid", "data_format": "channels_last", "dilation_rate": [1, 1, 1], "groups": 1, "activation": "linear", "use_bias": false, "kernel_initializer": {"class_name": "GlorotUniform", "config": {"seed": null}}, "bias_initializer": {"class_name": "Zeros", "config": {}}, "kernel_regularizer": null, "bias_regularizer": null, "activity_regularizer": null, "kernel_constraint": null, "bias_constraint": null}, "name": "conv3d_200", "inbound_nodes": [[["sequential_134", 1, 0, {}]]]}, {"class_name": "BatchNormalization", "config": {"name": "batch_normalization_139", "trainable": true, "dtype": "float32", "axis": [4], "momentum": 0.99, "epsilon": 0.001, "center": true, "scale": true, "beta_initializer": {"class_name": "Zeros", "config": {}}, "gamma_initializer": {"class_name": "Ones", "config": {}}, "moving_mean_initializer": {"class_name": "Zeros", "config": {}}, "moving_variance_initializer": {"class_name": "Ones", "config": {}}, "beta_regularizer": null, "gamma_regularizer": null, "beta_constraint": null, "gamma_constraint": null}, "name": "batch_normalization_139", "inbound_nodes": [[["conv3d_146", 0, 0, {}]]]}, {"class_name": "BatchNormalization", "config": {"name": "batch_normalization_192", "trainable": true, "dtype": "float32", "axis": [4], "momentum": 0.99, "epsilon": 0.001, "center": true, "scale": true, "beta_initializer": {"class_name": "Zeros", "config": {}}, "gamma_initializer": {"class_name": "Ones", "config": {}}, "moving_mean_initializer": {"class_name": "Zeros", "config": {}}, "moving_variance_initializer": {"class_name": "Ones", "config": {}}, "beta_regularizer": null, "gamma_regularizer": null, "beta_constraint": null, "gamma_constraint": null}, "name": "batch_normalization_192", "inbound_nodes": [[["conv3d_200", 0, 0, {}]]]}, {"class_name": "Add", "config": {"name": "add_41", "trainable": true, "dtype": "float32"}, "name": "add_41", "inbound_nodes": [[["batch_normalization_139", 0, 0, {}], ["re_lu_125", 0, 0, {}]]]}, {"class_name": "Add", "config": {"name": "add_57", "trainable": true, "dtype": "float32"}, "name": "add_57", "inbound_nodes": [[["batch_normalization_192", 0, 0, {}], ["re_lu_174", 0, 0, {}]]]}, {"class_name": "ReLU", "config": {"name": "re_lu_128", "trainable": true, "dtype": "float32", "max_value": null, "negative_slope": 0.0, "threshold": 0.0}, "name": "re_lu_128", "inbound_nodes": [[["add_41", 0, 0, {}]]]}, {"class_name": "ReLU", "config": {"name": "re_lu_177", "trainable": true, "dtype": "float32", "max_value": null, "negative_slope": 0.0, "threshold": 0.0}, "name": "re_lu_177", "inbound_nodes": [[["add_57", 0, 0, {}]]]}, {"class_name": "Sequential", "config": {"name": "sequential_98", "layers": [{"class_name": "InputLayer", "config": {"batch_input_shape": [null, null, null, null, 128], "dtype": "float32", "sparse": false, "ragged": false, "name": "conv3d_147_input"}}, {"class_name": "Conv3D", "config": {"name": "conv3d_147", "trainable": true, "dtype": "float32", "filters": 32, "kernel_size": [3, 1, 1], "strides": [1, 1, 1], "padding": "same", "data_format": "channels_last", "dilation_rate": [1, 1, 1], "groups": 1, "activation": "linear", "use_bias": false, "kernel_initializer": {"class_name": "GlorotUniform", "config": {"seed": null}}, "bias_initializer": {"class_name": "Zeros", "config": {}}, "kernel_regularizer": null, "bias_regularizer": null, "activity_regularizer": null, "kernel_constraint": null, "bias_constraint": null}}, {"class_name": "BatchNormalization", "config": {"name": "batch_normalization_140", "trainable": true, "dtype": "float32", "axis": [4], "momentum": 0.99, "epsilon": 0.001, "center": true, "scale": true, "beta_initializer": {"class_name": "Zeros", "config": {}}, "gamma_initializer": {"class_name": "Ones", "config": {}}, "moving_mean_initializer": {"class_name": "Zeros", "config": {}}, "moving_variance_initializer": {"class_name": "Ones", "config": {}}, "beta_regularizer": null, "gamma_regularizer": null, "beta_constraint": null, "gamma_constraint": null}}, {"class_name": "ReLU", "config": {"name": "re_lu_129", "trainable": true, "dtype": "float32", "max_value": null, "negative_slope": 0.0, "threshold": 0.0}}]}, "name": "sequential_98", "inbound_nodes": [[["re_lu_128", 0, 0, {}]]]}, {"class_name": "Sequential", "config": {"name": "sequential_135", "layers": [{"class_name": "InputLayer", "config": {"batch_input_shape": [null, null, null, null, 1024], "dtype": "float32", "sparse": false, "ragged": false, "name": "conv3d_201_input"}}, {"class_name": "Conv3D", "config": {"name": "conv3d_201", "trainable": true, "dtype": "float32", "filters": 256, "kernel_size": [1, 1, 1], "strides": [1, 1, 1], "padding": "same", "data_format": "channels_last", "dilation_rate": [1, 1, 1], "groups": 1, "activation": "linear", "use_bias": false, "kernel_initializer": {"class_name": "GlorotUniform", "config": {"seed": null}}, "bias_initializer": {"class_name": "Zeros", "config": {}}, "kernel_regularizer": null, "bias_regularizer": null, "activity_regularizer": null, "kernel_constraint": null, "bias_constraint": null}}, {"class_name": "BatchNormalization", "config": {"name": "batch_normalization_193", "trainable": true, "dtype": "float32", "axis": [4], "momentum": 0.99, "epsilon": 0.001, "center": true, "scale": true, "beta_initializer": {"class_name": "Zeros", "config": {}}, "gamma_initializer": {"class_name": "Ones", "config": {}}, "moving_mean_initializer": {"class_name": "Zeros", "config": {}}, "moving_variance_initializer": {"class_name": "Ones", "config": {}}, "beta_regularizer": null, "gamma_regularizer": null, "beta_constraint": null, "gamma_constraint": null}}, {"class_name": "ReLU", "config": {"name": "re_lu_178", "trainable": true, "dtype": "float32", "max_value": null, "negative_slope": 0.0, "threshold": 0.0}}]}, "name": "sequential_135", "inbound_nodes": [[["re_lu_177", 0, 0, {}]]]}, {"class_name": "Sequential", "config": {"name": "sequential_99", "layers": [{"class_name": "InputLayer", "config": {"batch_input_shape": [null, null, null, null, 32], "dtype": "float32", "sparse": false, "ragged": false, "name": "conv3d_148_input"}}, {"class_name": "Conv3D", "config": {"name": "conv3d_148", "trainable": true, "dtype": "float32", "filters": 32, "kernel_size": [1, 3, 3], "strides": [1, 1, 1], "padding": "same", "data_format": "channels_last", "dilation_rate": [1, 1, 1], "groups": 1, "activation": "linear", "use_bias": false, "kernel_initializer": {"class_name": "GlorotUniform", "config": {"seed": null}}, "bias_initializer": {"class_name": "Zeros", "config": {}}, "kernel_regularizer": null, "bias_regularizer": null, "activity_regularizer": null, "kernel_constraint": null, "bias_constraint": null}}, {"class_name": "BatchNormalization", "config": {"name": "batch_normalization_141", "trainable": true, "dtype": "float32", "axis": [4], "momentum": 0.99, "epsilon": 0.001, "center": true, "scale": true, "beta_initializer": {"class_name": "Zeros", "config": {}}, "gamma_initializer": {"class_name": "Ones", "config": {}}, "moving_mean_initializer": {"class_name": "Zeros", "config": {}}, "moving_variance_initializer": {"class_name": "Ones", "config": {}}, "beta_regularizer": null, "gamma_regularizer": null, "beta_constraint": null, "gamma_constraint": null}}, {"class_name": "ReLU", "config": {"name": "re_lu_130", "trainable": true, "dtype": "float32", "max_value": null, "negative_slope": 0.0, "threshold": 0.0}}]}, "name": "sequential_99", "inbound_nodes": [[["sequential_98", 1, 0, {}]]]}, {"class_name": "Sequential", "config": {"name": "sequential_136", "layers": [{"class_name": "InputLayer", "config": {"batch_input_shape": [null, null, null, null, 256], "dtype": "float32", "sparse": false, "ragged": false, "name": "conv3d_202_input"}}, {"class_name": "Conv3D", "config": {"name": "conv3d_202", "trainable": true, "dtype": "float32", "filters": 256, "kernel_size": [1, 3, 3], "strides": [1, 1, 1], "padding": "same", "data_format": "channels_last", "dilation_rate": [1, 1, 1], "groups": 1, "activation": "linear", "use_bias": false, "kernel_initializer": {"class_name": "GlorotUniform", "config": {"seed": null}}, "bias_initializer": {"class_name": "Zeros", "config": {}}, "kernel_regularizer": null, "bias_regularizer": null, "activity_regularizer": null, "kernel_constraint": null, "bias_constraint": null}}, {"class_name": "BatchNormalization", "config": {"name": "batch_normalization_194", "trainable": true, "dtype": "float32", "axis": [4], "momentum": 0.99, "epsilon": 0.001, "center": true, "scale": true, "beta_initializer": {"class_name": "Zeros", "config": {}}, "gamma_initializer": {"class_name": "Ones", "config": {}}, "moving_mean_initializer": {"class_name": "Zeros", "config": {}}, "moving_variance_initializer": {"class_name": "Ones", "config": {}}, "beta_regularizer": null, "gamma_regularizer": null, "beta_constraint": null, "gamma_constraint": null}}, {"class_name": "ReLU", "config": {"name": "re_lu_179", "trainable": true, "dtype": "float32", "max_value": null, "negative_slope": 0.0, "threshold": 0.0}}]}, "name": "sequential_136", "inbound_nodes": [[["sequential_135", 1, 0, {}]]]}, {"class_name": "Conv3D", "config": {"name": "conv3d_149", "trainable": true, "dtype": "float32", "filters": 128, "kernel_size": [1, 1, 1], "strides": [1, 1, 1], "padding": "valid", "data_format": "channels_last", "dilation_rate": [1, 1, 1], "groups": 1, "activation": "linear", "use_bias": false, "kernel_initializer": {"class_name": "GlorotUniform", "config": {"seed": null}}, "bias_initializer": {"class_name": "Zeros", "config": {}}, "kernel_regularizer": null, "bias_regularizer": null, "activity_regularizer": null, "kernel_constraint": null, "bias_constraint": null}, "name": "conv3d_149", "inbound_nodes": [[["sequential_99", 1, 0, {}]]]}, {"class_name": "Conv3D", "config": {"name": "conv3d_203", "trainable": true, "dtype": "float32", "filters": 1024, "kernel_size": [1, 1, 1], "strides": [1, 1, 1], "padding": "valid", "data_format": "channels_last", "dilation_rate": [1, 1, 1], "groups": 1, "activation": "linear", "use_bias": false, "kernel_initializer": {"class_name": "GlorotUniform", "config": {"seed": null}}, "bias_initializer": {"class_name": "Zeros", "config": {}}, "kernel_regularizer": null, "bias_regularizer": null, "activity_regularizer": null, "kernel_constraint": null, "bias_constraint": null}, "name": "conv3d_203", "inbound_nodes": [[["sequential_136", 1, 0, {}]]]}, {"class_name": "BatchNormalization", "config": {"name": "batch_normalization_142", "trainable": true, "dtype": "float32", "axis": [4], "momentum": 0.99, "epsilon": 0.001, "center": true, "scale": true, "beta_initializer": {"class_name": "Zeros", "config": {}}, "gamma_initializer": {"class_name": "Ones", "config": {}}, "moving_mean_initializer": {"class_name": "Zeros", "config": {}}, "moving_variance_initializer": {"class_name": "Ones", "config": {}}, "beta_regularizer": null, "gamma_regularizer": null, "beta_constraint": null, "gamma_constraint": null}, "name": "batch_normalization_142", "inbound_nodes": [[["conv3d_149", 0, 0, {}]]]}, {"class_name": "BatchNormalization", "config": {"name": "batch_normalization_195", "trainable": true, "dtype": "float32", "axis": [4], "momentum": 0.99, "epsilon": 0.001, "center": true, "scale": true, "beta_initializer": {"class_name": "Zeros", "config": {}}, "gamma_initializer": {"class_name": "Ones", "config": {}}, "moving_mean_initializer": {"class_name": "Zeros", "config": {}}, "moving_variance_initializer": {"class_name": "Ones", "config": {}}, "beta_regularizer": null, "gamma_regularizer": null, "beta_constraint": null, "gamma_constraint": null}, "name": "batch_normalization_195", "inbound_nodes": [[["conv3d_203", 0, 0, {}]]]}, {"class_name": "Add", "config": {"name": "add_42", "trainable": true, "dtype": "float32"}, "name": "add_42", "inbound_nodes": [[["batch_normalization_142", 0, 0, {}], ["re_lu_128", 0, 0, {}]]]}, {"class_name": "Add", "config": {"name": "add_58", "trainable": true, "dtype": "float32"}, "name": "add_58", "inbound_nodes": [[["batch_normalization_195", 0, 0, {}], ["re_lu_177", 0, 0, {}]]]}, {"class_name": "ReLU", "config": {"name": "re_lu_131", "trainable": true, "dtype": "float32", "max_value": null, "negative_slope": 0.0, "threshold": 0.0}, "name": "re_lu_131", "inbound_nodes": [[["add_42", 0, 0, {}]]]}, {"class_name": "ReLU", "config": {"name": "re_lu_180", "trainable": true, "dtype": "float32", "max_value": null, "negative_slope": 0.0, "threshold": 0.0}, "name": "re_lu_180", "inbound_nodes": [[["add_58", 0, 0, {}]]]}, {"class_name": "Sequential", "config": {"name": "sequential_100", "layers": [{"class_name": "InputLayer", "config": {"batch_input_shape": [null, null, null, null, 128], "dtype": "float32", "sparse": false, "ragged": false, "name": "conv3d_150_input"}}, {"class_name": "Conv3D", "config": {"name": "conv3d_150", "trainable": true, "dtype": "float32", "filters": 32, "kernel_size": [3, 1, 1], "strides": [1, 1, 1], "padding": "same", "data_format": "channels_last", "dilation_rate": [1, 1, 1], "groups": 1, "activation": "linear", "use_bias": false, "kernel_initializer": {"class_name": "GlorotUniform", "config": {"seed": null}}, "bias_initializer": {"class_name": "Zeros", "config": {}}, "kernel_regularizer": null, "bias_regularizer": null, "activity_regularizer": null, "kernel_constraint": null, "bias_constraint": null}}, {"class_name": "BatchNormalization", "config": {"name": "batch_normalization_143", "trainable": true, "dtype": "float32", "axis": [4], "momentum": 0.99, "epsilon": 0.001, "center": true, "scale": true, "beta_initializer": {"class_name": "Zeros", "config": {}}, "gamma_initializer": {"class_name": "Ones", "config": {}}, "moving_mean_initializer": {"class_name": "Zeros", "config": {}}, "moving_variance_initializer": {"class_name": "Ones", "config": {}}, "beta_regularizer": null, "gamma_regularizer": null, "beta_constraint": null, "gamma_constraint": null}}, {"class_name": "ReLU", "config": {"name": "re_lu_132", "trainable": true, "dtype": "float32", "max_value": null, "negative_slope": 0.0, "threshold": 0.0}}]}, "name": "sequential_100", "inbound_nodes": [[["re_lu_131", 0, 0, {}]]]}, {"class_name": "Sequential", "config": {"name": "sequential_137", "layers": [{"class_name": "InputLayer", "config": {"batch_input_shape": [null, null, null, null, 1024], "dtype": "float32", "sparse": false, "ragged": false, "name": "conv3d_204_input"}}, {"class_name": "Conv3D", "config": {"name": "conv3d_204", "trainable": true, "dtype": "float32", "filters": 256, "kernel_size": [1, 1, 1], "strides": [1, 1, 1], "padding": "same", "data_format": "channels_last", "dilation_rate": [1, 1, 1], "groups": 1, "activation": "linear", "use_bias": false, "kernel_initializer": {"class_name": "GlorotUniform", "config": {"seed": null}}, "bias_initializer": {"class_name": "Zeros", "config": {}}, "kernel_regularizer": null, "bias_regularizer": null, "activity_regularizer": null, "kernel_constraint": null, "bias_constraint": null}}, {"class_name": "BatchNormalization", "config": {"name": "batch_normalization_196", "trainable": true, "dtype": "float32", "axis": [4], "momentum": 0.99, "epsilon": 0.001, "center": true, "scale": true, "beta_initializer": {"class_name": "Zeros", "config": {}}, "gamma_initializer": {"class_name": "Ones", "config": {}}, "moving_mean_initializer": {"class_name": "Zeros", "config": {}}, "moving_variance_initializer": {"class_name": "Ones", "config": {}}, "beta_regularizer": null, "gamma_regularizer": null, "beta_constraint": null, "gamma_constraint": null}}, {"class_name": "ReLU", "config": {"name": "re_lu_181", "trainable": true, "dtype": "float32", "max_value": null, "negative_slope": 0.0, "threshold": 0.0}}]}, "name": "sequential_137", "inbound_nodes": [[["re_lu_180", 0, 0, {}]]]}, {"class_name": "Sequential", "config": {"name": "sequential_101", "layers": [{"class_name": "InputLayer", "config": {"batch_input_shape": [null, null, null, null, 32], "dtype": "float32", "sparse": false, "ragged": false, "name": "conv3d_151_input"}}, {"class_name": "Conv3D", "config": {"name": "conv3d_151", "trainable": true, "dtype": "float32", "filters": 32, "kernel_size": [1, 3, 3], "strides": [1, 1, 1], "padding": "same", "data_format": "channels_last", "dilation_rate": [1, 1, 1], "groups": 1, "activation": "linear", "use_bias": false, "kernel_initializer": {"class_name": "GlorotUniform", "config": {"seed": null}}, "bias_initializer": {"class_name": "Zeros", "config": {}}, "kernel_regularizer": null, "bias_regularizer": null, "activity_regularizer": null, "kernel_constraint": null, "bias_constraint": null}}, {"class_name": "BatchNormalization", "config": {"name": "batch_normalization_144", "trainable": true, "dtype": "float32", "axis": [4], "momentum": 0.99, "epsilon": 0.001, "center": true, "scale": true, "beta_initializer": {"class_name": "Zeros", "config": {}}, "gamma_initializer": {"class_name": "Ones", "config": {}}, "moving_mean_initializer": {"class_name": "Zeros", "config": {}}, "moving_variance_initializer": {"class_name": "Ones", "config": {}}, "beta_regularizer": null, "gamma_regularizer": null, "beta_constraint": null, "gamma_constraint": null}}, {"class_name": "ReLU", "config": {"name": "re_lu_133", "trainable": true, "dtype": "float32", "max_value": null, "negative_slope": 0.0, "threshold": 0.0}}]}, "name": "sequential_101", "inbound_nodes": [[["sequential_100", 1, 0, {}]]]}, {"class_name": "Sequential", "config": {"name": "sequential_138", "layers": [{"class_name": "InputLayer", "config": {"batch_input_shape": [null, null, null, null, 256], "dtype": "float32", "sparse": false, "ragged": false, "name": "conv3d_205_input"}}, {"class_name": "Conv3D", "config": {"name": "conv3d_205", "trainable": true, "dtype": "float32", "filters": 256, "kernel_size": [1, 3, 3], "strides": [1, 1, 1], "padding": "same", "data_format": "channels_last", "dilation_rate": [1, 1, 1], "groups": 1, "activation": "linear", "use_bias": false, "kernel_initializer": {"class_name": "GlorotUniform", "config": {"seed": null}}, "bias_initializer": {"class_name": "Zeros", "config": {}}, "kernel_regularizer": null, "bias_regularizer": null, "activity_regularizer": null, "kernel_constraint": null, "bias_constraint": null}}, {"class_name": "BatchNormalization", "config": {"name": "batch_normalization_197", "trainable": true, "dtype": "float32", "axis": [4], "momentum": 0.99, "epsilon": 0.001, "center": true, "scale": true, "beta_initializer": {"class_name": "Zeros", "config": {}}, "gamma_initializer": {"class_name": "Ones", "config": {}}, "moving_mean_initializer": {"class_name": "Zeros", "config": {}}, "moving_variance_initializer": {"class_name": "Ones", "config": {}}, "beta_regularizer": null, "gamma_regularizer": null, "beta_constraint": null, "gamma_constraint": null}}, {"class_name": "ReLU", "config": {"name": "re_lu_182", "trainable": true, "dtype": "float32", "max_value": null, "negative_slope": 0.0, "threshold": 0.0}}]}, "name": "sequential_138", "inbound_nodes": [[["sequential_137", 1, 0, {}]]]}, {"class_name": "Conv3D", "config": {"name": "conv3d_152", "trainable": true, "dtype": "float32", "filters": 128, "kernel_size": [1, 1, 1], "strides": [1, 1, 1], "padding": "valid", "data_format": "channels_last", "dilation_rate": [1, 1, 1], "groups": 1, "activation": "linear", "use_bias": false, "kernel_initializer": {"class_name": "GlorotUniform", "config": {"seed": null}}, "bias_initializer": {"class_name": "Zeros", "config": {}}, "kernel_regularizer": null, "bias_regularizer": null, "activity_regularizer": null, "kernel_constraint": null, "bias_constraint": null}, "name": "conv3d_152", "inbound_nodes": [[["sequential_101", 1, 0, {}]]]}, {"class_name": "Conv3D", "config": {"name": "conv3d_206", "trainable": true, "dtype": "float32", "filters": 1024, "kernel_size": [1, 1, 1], "strides": [1, 1, 1], "padding": "valid", "data_format": "channels_last", "dilation_rate": [1, 1, 1], "groups": 1, "activation": "linear", "use_bias": false, "kernel_initializer": {"class_name": "GlorotUniform", "config": {"seed": null}}, "bias_initializer": {"class_name": "Zeros", "config": {}}, "kernel_regularizer": null, "bias_regularizer": null, "activity_regularizer": null, "kernel_constraint": null, "bias_constraint": null}, "name": "conv3d_206", "inbound_nodes": [[["sequential_138", 1, 0, {}]]]}, {"class_name": "BatchNormalization", "config": {"name": "batch_normalization_145", "trainable": true, "dtype": "float32", "axis": [4], "momentum": 0.99, "epsilon": 0.001, "center": true, "scale": true, "beta_initializer": {"class_name": "Zeros", "config": {}}, "gamma_initializer": {"class_name": "Ones", "config": {}}, "moving_mean_initializer": {"class_name": "Zeros", "config": {}}, "moving_variance_initializer": {"class_name": "Ones", "config": {}}, "beta_regularizer": null, "gamma_regularizer": null, "beta_constraint": null, "gamma_constraint": null}, "name": "batch_normalization_145", "inbound_nodes": [[["conv3d_152", 0, 0, {}]]]}, {"class_name": "BatchNormalization", "config": {"name": "batch_normalization_198", "trainable": true, "dtype": "float32", "axis": [4], "momentum": 0.99, "epsilon": 0.001, "center": true, "scale": true, "beta_initializer": {"class_name": "Zeros", "config": {}}, "gamma_initializer": {"class_name": "Ones", "config": {}}, "moving_mean_initializer": {"class_name": "Zeros", "config": {}}, "moving_variance_initializer": {"class_name": "Ones", "config": {}}, "beta_regularizer": null, "gamma_regularizer": null, "beta_constraint": null, "gamma_constraint": null}, "name": "batch_normalization_198", "inbound_nodes": [[["conv3d_206", 0, 0, {}]]]}, {"class_name": "Add", "config": {"name": "add_43", "trainable": true, "dtype": "float32"}, "name": "add_43", "inbound_nodes": [[["batch_normalization_145", 0, 0, {}], ["re_lu_131", 0, 0, {}]]]}, {"class_name": "Add", "config": {"name": "add_59", "trainable": true, "dtype": "float32"}, "name": "add_59", "inbound_nodes": [[["batch_normalization_198", 0, 0, {}], ["re_lu_180", 0, 0, {}]]]}, {"class_name": "ReLU", "config": {"name": "re_lu_134", "trainable": true, "dtype": "float32", "max_value": null, "negative_slope": 0.0, "threshold": 0.0}, "name": "re_lu_134", "inbound_nodes": [[["add_43", 0, 0, {}]]]}, {"class_name": "ReLU", "config": {"name": "re_lu_183", "trainable": true, "dtype": "float32", "max_value": null, "negative_slope": 0.0, "threshold": 0.0}, "name": "re_lu_183", "inbound_nodes": [[["add_59", 0, 0, {}]]]}, {"class_name": "Sequential", "config": {"name": "sequential_102", "layers": [{"class_name": "InputLayer", "config": {"batch_input_shape": [null, null, null, null, 128], "dtype": "float32", "sparse": false, "ragged": false, "name": "conv3d_153_input"}}, {"class_name": "Conv3D", "config": {"name": "conv3d_153", "trainable": true, "dtype": "float32", "filters": 32, "kernel_size": [3, 1, 1], "strides": [1, 1, 1], "padding": "same", "data_format": "channels_last", "dilation_rate": [1, 1, 1], "groups": 1, "activation": "linear", "use_bias": false, "kernel_initializer": {"class_name": "GlorotUniform", "config": {"seed": null}}, "bias_initializer": {"class_name": "Zeros", "config": {}}, "kernel_regularizer": null, "bias_regularizer": null, "activity_regularizer": null, "kernel_constraint": null, "bias_constraint": null}}, {"class_name": "BatchNormalization", "config": {"name": "batch_normalization_146", "trainable": true, "dtype": "float32", "axis": [4], "momentum": 0.99, "epsilon": 0.001, "center": true, "scale": true, "beta_initializer": {"class_name": "Zeros", "config": {}}, "gamma_initializer": {"class_name": "Ones", "config": {}}, "moving_mean_initializer": {"class_name": "Zeros", "config": {}}, "moving_variance_initializer": {"class_name": "Ones", "config": {}}, "beta_regularizer": null, "gamma_regularizer": null, "beta_constraint": null, "gamma_constraint": null}}, {"class_name": "ReLU", "config": {"name": "re_lu_135", "trainable": true, "dtype": "float32", "max_value": null, "negative_slope": 0.0, "threshold": 0.0}}]}, "name": "sequential_102", "inbound_nodes": [[["re_lu_134", 0, 0, {}]]]}, {"class_name": "Sequential", "config": {"name": "sequential_139", "layers": [{"class_name": "InputLayer", "config": {"batch_input_shape": [null, null, null, null, 1024], "dtype": "float32", "sparse": false, "ragged": false, "name": "conv3d_207_input"}}, {"class_name": "Conv3D", "config": {"name": "conv3d_207", "trainable": true, "dtype": "float32", "filters": 256, "kernel_size": [1, 1, 1], "strides": [1, 1, 1], "padding": "same", "data_format": "channels_last", "dilation_rate": [1, 1, 1], "groups": 1, "activation": "linear", "use_bias": false, "kernel_initializer": {"class_name": "GlorotUniform", "config": {"seed": null}}, "bias_initializer": {"class_name": "Zeros", "config": {}}, "kernel_regularizer": null, "bias_regularizer": null, "activity_regularizer": null, "kernel_constraint": null, "bias_constraint": null}}, {"class_name": "BatchNormalization", "config": {"name": "batch_normalization_199", "trainable": true, "dtype": "float32", "axis": [4], "momentum": 0.99, "epsilon": 0.001, "center": true, "scale": true, "beta_initializer": {"class_name": "Zeros", "config": {}}, "gamma_initializer": {"class_name": "Ones", "config": {}}, "moving_mean_initializer": {"class_name": "Zeros", "config": {}}, "moving_variance_initializer": {"class_name": "Ones", "config": {}}, "beta_regularizer": null, "gamma_regularizer": null, "beta_constraint": null, "gamma_constraint": null}}, {"class_name": "ReLU", "config": {"name": "re_lu_184", "trainable": true, "dtype": "float32", "max_value": null, "negative_slope": 0.0, "threshold": 0.0}}]}, "name": "sequential_139", "inbound_nodes": [[["re_lu_183", 0, 0, {}]]]}, {"class_name": "Sequential", "config": {"name": "sequential_103", "layers": [{"class_name": "InputLayer", "config": {"batch_input_shape": [null, null, null, null, 32], "dtype": "float32", "sparse": false, "ragged": false, "name": "conv3d_154_input"}}, {"class_name": "Conv3D", "config": {"name": "conv3d_154", "trainable": true, "dtype": "float32", "filters": 32, "kernel_size": [1, 3, 3], "strides": [1, 1, 1], "padding": "same", "data_format": "channels_last", "dilation_rate": [1, 1, 1], "groups": 1, "activation": "linear", "use_bias": false, "kernel_initializer": {"class_name": "GlorotUniform", "config": {"seed": null}}, "bias_initializer": {"class_name": "Zeros", "config": {}}, "kernel_regularizer": null, "bias_regularizer": null, "activity_regularizer": null, "kernel_constraint": null, "bias_constraint": null}}, {"class_name": "BatchNormalization", "config": {"name": "batch_normalization_147", "trainable": true, "dtype": "float32", "axis": [4], "momentum": 0.99, "epsilon": 0.001, "center": true, "scale": true, "beta_initializer": {"class_name": "Zeros", "config": {}}, "gamma_initializer": {"class_name": "Ones", "config": {}}, "moving_mean_initializer": {"class_name": "Zeros", "config": {}}, "moving_variance_initializer": {"class_name": "Ones", "config": {}}, "beta_regularizer": null, "gamma_regularizer": null, "beta_constraint": null, "gamma_constraint": null}}, {"class_name": "ReLU", "config": {"name": "re_lu_136", "trainable": true, "dtype": "float32", "max_value": null, "negative_slope": 0.0, "threshold": 0.0}}]}, "name": "sequential_103", "inbound_nodes": [[["sequential_102", 1, 0, {}]]]}, {"class_name": "Sequential", "config": {"name": "sequential_140", "layers": [{"class_name": "InputLayer", "config": {"batch_input_shape": [null, null, null, null, 256], "dtype": "float32", "sparse": false, "ragged": false, "name": "conv3d_208_input"}}, {"class_name": "Conv3D", "config": {"name": "conv3d_208", "trainable": true, "dtype": "float32", "filters": 256, "kernel_size": [1, 3, 3], "strides": [1, 1, 1], "padding": "same", "data_format": "channels_last", "dilation_rate": [1, 1, 1], "groups": 1, "activation": "linear", "use_bias": false, "kernel_initializer": {"class_name": "GlorotUniform", "config": {"seed": null}}, "bias_initializer": {"class_name": "Zeros", "config": {}}, "kernel_regularizer": null, "bias_regularizer": null, "activity_regularizer": null, "kernel_constraint": null, "bias_constraint": null}}, {"class_name": "BatchNormalization", "config": {"name": "batch_normalization_200", "trainable": true, "dtype": "float32", "axis": [4], "momentum": 0.99, "epsilon": 0.001, "center": true, "scale": true, "beta_initializer": {"class_name": "Zeros", "config": {}}, "gamma_initializer": {"class_name": "Ones", "config": {}}, "moving_mean_initializer": {"class_name": "Zeros", "config": {}}, "moving_variance_initializer": {"class_name": "Ones", "config": {}}, "beta_regularizer": null, "gamma_regularizer": null, "beta_constraint": null, "gamma_constraint": null}}, {"class_name": "ReLU", "config": {"name": "re_lu_185", "trainable": true, "dtype": "float32", "max_value": null, "negative_slope": 0.0, "threshold": 0.0}}]}, "name": "sequential_140", "inbound_nodes": [[["sequential_139", 1, 0, {}]]]}, {"class_name": "Conv3D", "config": {"name": "conv3d_155", "trainable": true, "dtype": "float32", "filters": 128, "kernel_size": [1, 1, 1], "strides": [1, 1, 1], "padding": "valid", "data_format": "channels_last", "dilation_rate": [1, 1, 1], "groups": 1, "activation": "linear", "use_bias": false, "kernel_initializer": {"class_name": "GlorotUniform", "config": {"seed": null}}, "bias_initializer": {"class_name": "Zeros", "config": {}}, "kernel_regularizer": null, "bias_regularizer": null, "activity_regularizer": null, "kernel_constraint": null, "bias_constraint": null}, "name": "conv3d_155", "inbound_nodes": [[["sequential_103", 1, 0, {}]]]}, {"class_name": "Conv3D", "config": {"name": "conv3d_209", "trainable": true, "dtype": "float32", "filters": 1024, "kernel_size": [1, 1, 1], "strides": [1, 1, 1], "padding": "valid", "data_format": "channels_last", "dilation_rate": [1, 1, 1], "groups": 1, "activation": "linear", "use_bias": false, "kernel_initializer": {"class_name": "GlorotUniform", "config": {"seed": null}}, "bias_initializer": {"class_name": "Zeros", "config": {}}, "kernel_regularizer": null, "bias_regularizer": null, "activity_regularizer": null, "kernel_constraint": null, "bias_constraint": null}, "name": "conv3d_209", "inbound_nodes": [[["sequential_140", 1, 0, {}]]]}, {"class_name": "BatchNormalization", "config": {"name": "batch_normalization_148", "trainable": true, "dtype": "float32", "axis": [4], "momentum": 0.99, "epsilon": 0.001, "center": true, "scale": true, "beta_initializer": {"class_name": "Zeros", "config": {}}, "gamma_initializer": {"class_name": "Ones", "config": {}}, "moving_mean_initializer": {"class_name": "Zeros", "config": {}}, "moving_variance_initializer": {"class_name": "Ones", "config": {}}, "beta_regularizer": null, "gamma_regularizer": null, "beta_constraint": null, "gamma_constraint": null}, "name": "batch_normalization_148", "inbound_nodes": [[["conv3d_155", 0, 0, {}]]]}, {"class_name": "BatchNormalization", "config": {"name": "batch_normalization_201", "trainable": true, "dtype": "float32", "axis": [4], "momentum": 0.99, "epsilon": 0.001, "center": true, "scale": true, "beta_initializer": {"class_name": "Zeros", "config": {}}, "gamma_initializer": {"class_name": "Ones", "config": {}}, "moving_mean_initializer": {"class_name": "Zeros", "config": {}}, "moving_variance_initializer": {"class_name": "Ones", "config": {}}, "beta_regularizer": null, "gamma_regularizer": null, "beta_constraint": null, "gamma_constraint": null}, "name": "batch_normalization_201", "inbound_nodes": [[["conv3d_209", 0, 0, {}]]]}, {"class_name": "Add", "config": {"name": "add_44", "trainable": true, "dtype": "float32"}, "name": "add_44", "inbound_nodes": [[["batch_normalization_148", 0, 0, {}], ["re_lu_134", 0, 0, {}]]]}, {"class_name": "Add", "config": {"name": "add_60", "trainable": true, "dtype": "float32"}, "name": "add_60", "inbound_nodes": [[["batch_normalization_201", 0, 0, {}], ["re_lu_183", 0, 0, {}]]]}, {"class_name": "ReLU", "config": {"name": "re_lu_137", "trainable": true, "dtype": "float32", "max_value": null, "negative_slope": 0.0, "threshold": 0.0}, "name": "re_lu_137", "inbound_nodes": [[["add_44", 0, 0, {}]]]}, {"class_name": "ReLU", "config": {"name": "re_lu_186", "trainable": true, "dtype": "float32", "max_value": null, "negative_slope": 0.0, "threshold": 0.0}, "name": "re_lu_186", "inbound_nodes": [[["add_60", 0, 0, {}]]]}, {"class_name": "Conv3D", "config": {"name": "conv3d_156", "trainable": true, "dtype": "float32", "filters": 256, "kernel_size": [5, 1, 1], "strides": [8, 1, 1], "padding": "same", "data_format": "channels_last", "dilation_rate": [1, 1, 1], "groups": 1, "activation": "linear", "use_bias": false, "kernel_initializer": {"class_name": "GlorotUniform", "config": {"seed": null}}, "bias_initializer": {"class_name": "Zeros", "config": {}}, "kernel_regularizer": null, "bias_regularizer": null, "activity_regularizer": null, "kernel_constraint": null, "bias_constraint": null}, "name": "conv3d_156", "inbound_nodes": [[["re_lu_137", 0, 0, {}]]]}, {"class_name": "Concatenate", "config": {"name": "concatenate_8", "trainable": true, "dtype": "float32", "axis": -1}, "name": "concatenate_8", "inbound_nodes": [[["re_lu_186", 0, 0, {}], ["conv3d_156", 0, 0, {}]]]}, {"class_name": "Sequential", "config": {"name": "sequential_142", "layers": [{"class_name": "InputLayer", "config": {"batch_input_shape": [null, null, null, null, 1280], "dtype": "float32", "sparse": false, "ragged": false, "name": "conv3d_211_input"}}, {"class_name": "Conv3D", "config": {"name": "conv3d_211", "trainable": true, "dtype": "float32", "filters": 512, "kernel_size": [1, 1, 1], "strides": [1, 1, 1], "padding": "same", "data_format": "channels_last", "dilation_rate": [1, 1, 1], "groups": 1, "activation": "linear", "use_bias": false, "kernel_initializer": {"class_name": "GlorotUniform", "config": {"seed": null}}, "bias_initializer": {"class_name": "Zeros", "config": {}}, "kernel_regularizer": null, "bias_regularizer": null, "activity_regularizer": null, "kernel_constraint": null, "bias_constraint": null}}, {"class_name": "BatchNormalization", "config": {"name": "batch_normalization_203", "trainable": true, "dtype": "float32", "axis": [4], "momentum": 0.99, "epsilon": 0.001, "center": true, "scale": true, "beta_initializer": {"class_name": "Zeros", "config": {}}, "gamma_initializer": {"class_name": "Ones", "config": {}}, "moving_mean_initializer": {"class_name": "Zeros", "config": {}}, "moving_variance_initializer": {"class_name": "Ones", "config": {}}, "beta_regularizer": null, "gamma_regularizer": null, "beta_constraint": null, "gamma_constraint": null}}, {"class_name": "ReLU", "config": {"name": "re_lu_187", "trainable": true, "dtype": "float32", "max_value": null, "negative_slope": 0.0, "threshold": 0.0}}]}, "name": "sequential_142", "inbound_nodes": [[["concatenate_8", 0, 0, {}]]]}, {"class_name": "Sequential", "config": {"name": "sequential_105", "layers": [{"class_name": "InputLayer", "config": {"batch_input_shape": [null, null, null, null, 128], "dtype": "float32", "sparse": false, "ragged": false, "name": "conv3d_158_input"}}, {"class_name": "Conv3D", "config": {"name": "conv3d_158", "trainable": true, "dtype": "float32", "filters": 64, "kernel_size": [3, 1, 1], "strides": [1, 1, 1], "padding": "same", "data_format": "channels_last", "dilation_rate": [1, 1, 1], "groups": 1, "activation": "linear", "use_bias": false, "kernel_initializer": {"class_name": "GlorotUniform", "config": {"seed": null}}, "bias_initializer": {"class_name": "Zeros", "config": {}}, "kernel_regularizer": null, "bias_regularizer": null, "activity_regularizer": null, "kernel_constraint": null, "bias_constraint": null}}, {"class_name": "BatchNormalization", "config": {"name": "batch_normalization_150", "trainable": true, "dtype": "float32", "axis": [4], "momentum": 0.99, "epsilon": 0.001, "center": true, "scale": true, "beta_initializer": {"class_name": "Zeros", "config": {}}, "gamma_initializer": {"class_name": "Ones", "config": {}}, "moving_mean_initializer": {"class_name": "Zeros", "config": {}}, "moving_variance_initializer": {"class_name": "Ones", "config": {}}, "beta_regularizer": null, "gamma_regularizer": null, "beta_constraint": null, "gamma_constraint": null}}, {"class_name": "ReLU", "config": {"name": "re_lu_138", "trainable": true, "dtype": "float32", "max_value": null, "negative_slope": 0.0, "threshold": 0.0}}]}, "name": "sequential_105", "inbound_nodes": [[["re_lu_137", 0, 0, {}]]]}, {"class_name": "Sequential", "config": {"name": "sequential_143", "layers": [{"class_name": "InputLayer", "config": {"batch_input_shape": [null, null, null, null, 512], "dtype": "float32", "sparse": false, "ragged": false, "name": "conv3d_212_input"}}, {"class_name": "Conv3D", "config": {"name": "conv3d_212", "trainable": true, "dtype": "float32", "filters": 512, "kernel_size": [1, 3, 3], "strides": [1, 2, 2], "padding": "same", "data_format": "channels_last", "dilation_rate": [1, 1, 1], "groups": 1, "activation": "linear", "use_bias": false, "kernel_initializer": {"class_name": "GlorotUniform", "config": {"seed": null}}, "bias_initializer": {"class_name": "Zeros", "config": {}}, "kernel_regularizer": null, "bias_regularizer": null, "activity_regularizer": null, "kernel_constraint": null, "bias_constraint": null}}, {"class_name": "BatchNormalization", "config": {"name": "batch_normalization_204", "trainable": true, "dtype": "float32", "axis": [4], "momentum": 0.99, "epsilon": 0.001, "center": true, "scale": true, "beta_initializer": {"class_name": "Zeros", "config": {}}, "gamma_initializer": {"class_name": "Ones", "config": {}}, "moving_mean_initializer": {"class_name": "Zeros", "config": {}}, "moving_variance_initializer": {"class_name": "Ones", "config": {}}, "beta_regularizer": null, "gamma_regularizer": null, "beta_constraint": null, "gamma_constraint": null}}, {"class_name": "ReLU", "config": {"name": "re_lu_188", "trainable": true, "dtype": "float32", "max_value": null, "negative_slope": 0.0, "threshold": 0.0}}]}, "name": "sequential_143", "inbound_nodes": [[["sequential_142", 1, 0, {}]]]}, {"class_name": "Sequential", "config": {"name": "sequential_106", "layers": [{"class_name": "InputLayer", "config": {"batch_input_shape": [null, null, null, null, 64], "dtype": "float32", "sparse": false, "ragged": false, "name": "conv3d_159_input"}}, {"class_name": "Conv3D", "config": {"name": "conv3d_159", "trainable": true, "dtype": "float32", "filters": 64, "kernel_size": [1, 3, 3], "strides": [1, 2, 2], "padding": "same", "data_format": "channels_last", "dilation_rate": [1, 1, 1], "groups": 1, "activation": "linear", "use_bias": false, "kernel_initializer": {"class_name": "GlorotUniform", "config": {"seed": null}}, "bias_initializer": {"class_name": "Zeros", "config": {}}, "kernel_regularizer": null, "bias_regularizer": null, "activity_regularizer": null, "kernel_constraint": null, "bias_constraint": null}}, {"class_name": "BatchNormalization", "config": {"name": "batch_normalization_151", "trainable": true, "dtype": "float32", "axis": [4], "momentum": 0.99, "epsilon": 0.001, "center": true, "scale": true, "beta_initializer": {"class_name": "Zeros", "config": {}}, "gamma_initializer": {"class_name": "Ones", "config": {}}, "moving_mean_initializer": {"class_name": "Zeros", "config": {}}, "moving_variance_initializer": {"class_name": "Ones", "config": {}}, "beta_regularizer": null, "gamma_regularizer": null, "beta_constraint": null, "gamma_constraint": null}}, {"class_name": "ReLU", "config": {"name": "re_lu_139", "trainable": true, "dtype": "float32", "max_value": null, "negative_slope": 0.0, "threshold": 0.0}}]}, "name": "sequential_106", "inbound_nodes": [[["sequential_105", 1, 0, {}]]]}, {"class_name": "Conv3D", "config": {"name": "conv3d_213", "trainable": true, "dtype": "float32", "filters": 2048, "kernel_size": [1, 1, 1], "strides": [1, 1, 1], "padding": "valid", "data_format": "channels_last", "dilation_rate": [1, 1, 1], "groups": 1, "activation": "linear", "use_bias": false, "kernel_initializer": {"class_name": "GlorotUniform", "config": {"seed": null}}, "bias_initializer": {"class_name": "Zeros", "config": {}}, "kernel_regularizer": null, "bias_regularizer": null, "activity_regularizer": null, "kernel_constraint": null, "bias_constraint": null}, "name": "conv3d_213", "inbound_nodes": [[["sequential_143", 1, 0, {}]]]}, {"class_name": "Conv3D", "config": {"name": "conv3d_160", "trainable": true, "dtype": "float32", "filters": 256, "kernel_size": [1, 1, 1], "strides": [1, 1, 1], "padding": "valid", "data_format": "channels_last", "dilation_rate": [1, 1, 1], "groups": 1, "activation": "linear", "use_bias": false, "kernel_initializer": {"class_name": "GlorotUniform", "config": {"seed": null}}, "bias_initializer": {"class_name": "Zeros", "config": {}}, "kernel_regularizer": null, "bias_regularizer": null, "activity_regularizer": null, "kernel_constraint": null, "bias_constraint": null}, "name": "conv3d_160", "inbound_nodes": [[["sequential_106", 1, 0, {}]]]}, {"class_name": "BatchNormalization", "config": {"name": "batch_normalization_205", "trainable": true, "dtype": "float32", "axis": [4], "momentum": 0.99, "epsilon": 0.001, "center": true, "scale": true, "beta_initializer": {"class_name": "Zeros", "config": {}}, "gamma_initializer": {"class_name": "Ones", "config": {}}, "moving_mean_initializer": {"class_name": "Zeros", "config": {}}, "moving_variance_initializer": {"class_name": "Ones", "config": {}}, "beta_regularizer": null, "gamma_regularizer": null, "beta_constraint": null, "gamma_constraint": null}, "name": "batch_normalization_205", "inbound_nodes": [[["conv3d_213", 0, 0, {}]]]}, {"class_name": "Sequential", "config": {"name": "sequential_141", "layers": [{"class_name": "InputLayer", "config": {"batch_input_shape": [null, null, null, null, 1280], "dtype": "float32", "sparse": false, "ragged": false, "name": "conv3d_210_input"}}, {"class_name": "Conv3D", "config": {"name": "conv3d_210", "trainable": true, "dtype": "float32", "filters": 2048, "kernel_size": [1, 1, 1], "strides": [1, 2, 2], "padding": "valid", "data_format": "channels_last", "dilation_rate": [1, 1, 1], "groups": 1, "activation": "linear", "use_bias": false, "kernel_initializer": {"class_name": "GlorotUniform", "config": {"seed": null}}, "bias_initializer": {"class_name": "Zeros", "config": {}}, "kernel_regularizer": null, "bias_regularizer": null, "activity_regularizer": null, "kernel_constraint": null, "bias_constraint": null}}, {"class_name": "BatchNormalization", "config": {"name": "batch_normalization_202", "trainable": true, "dtype": "float32", "axis": [4], "momentum": 0.99, "epsilon": 0.001, "center": true, "scale": true, "beta_initializer": {"class_name": "Zeros", "config": {}}, "gamma_initializer": {"class_name": "Ones", "config": {}}, "moving_mean_initializer": {"class_name": "Zeros", "config": {}}, "moving_variance_initializer": {"class_name": "Ones", "config": {}}, "beta_regularizer": null, "gamma_regularizer": null, "beta_constraint": null, "gamma_constraint": null}}]}, "name": "sequential_141", "inbound_nodes": [[["concatenate_8", 0, 0, {}]]]}, {"class_name": "BatchNormalization", "config": {"name": "batch_normalization_152", "trainable": true, "dtype": "float32", "axis": [4], "momentum": 0.99, "epsilon": 0.001, "center": true, "scale": true, "beta_initializer": {"class_name": "Zeros", "config": {}}, "gamma_initializer": {"class_name": "Ones", "config": {}}, "moving_mean_initializer": {"class_name": "Zeros", "config": {}}, "moving_variance_initializer": {"class_name": "Ones", "config": {}}, "beta_regularizer": null, "gamma_regularizer": null, "beta_constraint": null, "gamma_constraint": null}, "name": "batch_normalization_152", "inbound_nodes": [[["conv3d_160", 0, 0, {}]]]}, {"class_name": "Sequential", "config": {"name": "sequential_104", "layers": [{"class_name": "InputLayer", "config": {"batch_input_shape": [null, null, null, null, 128], "dtype": "float32", "sparse": false, "ragged": false, "name": "conv3d_157_input"}}, {"class_name": "Conv3D", "config": {"name": "conv3d_157", "trainable": true, "dtype": "float32", "filters": 256, "kernel_size": [1, 1, 1], "strides": [1, 2, 2], "padding": "valid", "data_format": "channels_last", "dilation_rate": [1, 1, 1], "groups": 1, "activation": "linear", "use_bias": false, "kernel_initializer": {"class_name": "GlorotUniform", "config": {"seed": null}}, "bias_initializer": {"class_name": "Zeros", "config": {}}, "kernel_regularizer": null, "bias_regularizer": null, "activity_regularizer": null, "kernel_constraint": null, "bias_constraint": null}}, {"class_name": "BatchNormalization", "config": {"name": "batch_normalization_149", "trainable": true, "dtype": "float32", "axis": [4], "momentum": 0.99, "epsilon": 0.001, "center": true, "scale": true, "beta_initializer": {"class_name": "Zeros", "config": {}}, "gamma_initializer": {"class_name": "Ones", "config": {}}, "moving_mean_initializer": {"class_name": "Zeros", "config": {}}, "moving_variance_initializer": {"class_name": "Ones", "config": {}}, "beta_regularizer": null, "gamma_regularizer": null, "beta_constraint": null, "gamma_constraint": null}}]}, "name": "sequential_104", "inbound_nodes": [[["re_lu_137", 0, 0, {}]]]}, {"class_name": "Add", "config": {"name": "add_61", "trainable": true, "dtype": "float32"}, "name": "add_61", "inbound_nodes": [[["batch_normalization_205", 0, 0, {}], ["sequential_141", 1, 0, {}]]]}, {"class_name": "Add", "config": {"name": "add_45", "trainable": true, "dtype": "float32"}, "name": "add_45", "inbound_nodes": [[["batch_normalization_152", 0, 0, {}], ["sequential_104", 1, 0, {}]]]}, {"class_name": "ReLU", "config": {"name": "re_lu_189", "trainable": true, "dtype": "float32", "max_value": null, "negative_slope": 0.0, "threshold": 0.0}, "name": "re_lu_189", "inbound_nodes": [[["add_61", 0, 0, {}]]]}, {"class_name": "ReLU", "config": {"name": "re_lu_140", "trainable": true, "dtype": "float32", "max_value": null, "negative_slope": 0.0, "threshold": 0.0}, "name": "re_lu_140", "inbound_nodes": [[["add_45", 0, 0, {}]]]}, {"class_name": "Sequential", "config": {"name": "sequential_144", "layers": [{"class_name": "InputLayer", "config": {"batch_input_shape": [null, null, null, null, 2048], "dtype": "float32", "sparse": false, "ragged": false, "name": "conv3d_214_input"}}, {"class_name": "Conv3D", "config": {"name": "conv3d_214", "trainable": true, "dtype": "float32", "filters": 512, "kernel_size": [1, 1, 1], "strides": [1, 1, 1], "padding": "same", "data_format": "channels_last", "dilation_rate": [1, 1, 1], "groups": 1, "activation": "linear", "use_bias": false, "kernel_initializer": {"class_name": "GlorotUniform", "config": {"seed": null}}, "bias_initializer": {"class_name": "Zeros", "config": {}}, "kernel_regularizer": null, "bias_regularizer": null, "activity_regularizer": null, "kernel_constraint": null, "bias_constraint": null}}, {"class_name": "BatchNormalization", "config": {"name": "batch_normalization_206", "trainable": true, "dtype": "float32", "axis": [4], "momentum": 0.99, "epsilon": 0.001, "center": true, "scale": true, "beta_initializer": {"class_name": "Zeros", "config": {}}, "gamma_initializer": {"class_name": "Ones", "config": {}}, "moving_mean_initializer": {"class_name": "Zeros", "config": {}}, "moving_variance_initializer": {"class_name": "Ones", "config": {}}, "beta_regularizer": null, "gamma_regularizer": null, "beta_constraint": null, "gamma_constraint": null}}, {"class_name": "ReLU", "config": {"name": "re_lu_190", "trainable": true, "dtype": "float32", "max_value": null, "negative_slope": 0.0, "threshold": 0.0}}]}, "name": "sequential_144", "inbound_nodes": [[["re_lu_189", 0, 0, {}]]]}, {"class_name": "Sequential", "config": {"name": "sequential_107", "layers": [{"class_name": "InputLayer", "config": {"batch_input_shape": [null, null, null, null, 256], "dtype": "float32", "sparse": false, "ragged": false, "name": "conv3d_161_input"}}, {"class_name": "Conv3D", "config": {"name": "conv3d_161", "trainable": true, "dtype": "float32", "filters": 64, "kernel_size": [3, 1, 1], "strides": [1, 1, 1], "padding": "same", "data_format": "channels_last", "dilation_rate": [1, 1, 1], "groups": 1, "activation": "linear", "use_bias": false, "kernel_initializer": {"class_name": "GlorotUniform", "config": {"seed": null}}, "bias_initializer": {"class_name": "Zeros", "config": {}}, "kernel_regularizer": null, "bias_regularizer": null, "activity_regularizer": null, "kernel_constraint": null, "bias_constraint": null}}, {"class_name": "BatchNormalization", "config": {"name": "batch_normalization_153", "trainable": true, "dtype": "float32", "axis": [4], "momentum": 0.99, "epsilon": 0.001, "center": true, "scale": true, "beta_initializer": {"class_name": "Zeros", "config": {}}, "gamma_initializer": {"class_name": "Ones", "config": {}}, "moving_mean_initializer": {"class_name": "Zeros", "config": {}}, "moving_variance_initializer": {"class_name": "Ones", "config": {}}, "beta_regularizer": null, "gamma_regularizer": null, "beta_constraint": null, "gamma_constraint": null}}, {"class_name": "ReLU", "config": {"name": "re_lu_141", "trainable": true, "dtype": "float32", "max_value": null, "negative_slope": 0.0, "threshold": 0.0}}]}, "name": "sequential_107", "inbound_nodes": [[["re_lu_140", 0, 0, {}]]]}, {"class_name": "Sequential", "config": {"name": "sequential_145", "layers": [{"class_name": "InputLayer", "config": {"batch_input_shape": [null, null, null, null, 512], "dtype": "float32", "sparse": false, "ragged": false, "name": "conv3d_215_input"}}, {"class_name": "Conv3D", "config": {"name": "conv3d_215", "trainable": true, "dtype": "float32", "filters": 512, "kernel_size": [1, 3, 3], "strides": [1, 1, 1], "padding": "same", "data_format": "channels_last", "dilation_rate": [1, 1, 1], "groups": 1, "activation": "linear", "use_bias": false, "kernel_initializer": {"class_name": "GlorotUniform", "config": {"seed": null}}, "bias_initializer": {"class_name": "Zeros", "config": {}}, "kernel_regularizer": null, "bias_regularizer": null, "activity_regularizer": null, "kernel_constraint": null, "bias_constraint": null}}, {"class_name": "BatchNormalization", "config": {"name": "batch_normalization_207", "trainable": true, "dtype": "float32", "axis": [4], "momentum": 0.99, "epsilon": 0.001, "center": true, "scale": true, "beta_initializer": {"class_name": "Zeros", "config": {}}, "gamma_initializer": {"class_name": "Ones", "config": {}}, "moving_mean_initializer": {"class_name": "Zeros", "config": {}}, "moving_variance_initializer": {"class_name": "Ones", "config": {}}, "beta_regularizer": null, "gamma_regularizer": null, "beta_constraint": null, "gamma_constraint": null}}, {"class_name": "ReLU", "config": {"name": "re_lu_191", "trainable": true, "dtype": "float32", "max_value": null, "negative_slope": 0.0, "threshold": 0.0}}]}, "name": "sequential_145", "inbound_nodes": [[["sequential_144", 1, 0, {}]]]}, {"class_name": "Sequential", "config": {"name": "sequential_108", "layers": [{"class_name": "InputLayer", "config": {"batch_input_shape": [null, null, null, null, 64], "dtype": "float32", "sparse": false, "ragged": false, "name": "conv3d_162_input"}}, {"class_name": "Conv3D", "config": {"name": "conv3d_162", "trainable": true, "dtype": "float32", "filters": 64, "kernel_size": [1, 3, 3], "strides": [1, 1, 1], "padding": "same", "data_format": "channels_last", "dilation_rate": [1, 1, 1], "groups": 1, "activation": "linear", "use_bias": false, "kernel_initializer": {"class_name": "GlorotUniform", "config": {"seed": null}}, "bias_initializer": {"class_name": "Zeros", "config": {}}, "kernel_regularizer": null, "bias_regularizer": null, "activity_regularizer": null, "kernel_constraint": null, "bias_constraint": null}}, {"class_name": "BatchNormalization", "config": {"name": "batch_normalization_154", "trainable": true, "dtype": "float32", "axis": [4], "momentum": 0.99, "epsilon": 0.001, "center": true, "scale": true, "beta_initializer": {"class_name": "Zeros", "config": {}}, "gamma_initializer": {"class_name": "Ones", "config": {}}, "moving_mean_initializer": {"class_name": "Zeros", "config": {}}, "moving_variance_initializer": {"class_name": "Ones", "config": {}}, "beta_regularizer": null, "gamma_regularizer": null, "beta_constraint": null, "gamma_constraint": null}}, {"class_name": "ReLU", "config": {"name": "re_lu_142", "trainable": true, "dtype": "float32", "max_value": null, "negative_slope": 0.0, "threshold": 0.0}}]}, "name": "sequential_108", "inbound_nodes": [[["sequential_107", 1, 0, {}]]]}, {"class_name": "Conv3D", "config": {"name": "conv3d_216", "trainable": true, "dtype": "float32", "filters": 2048, "kernel_size": [1, 1, 1], "strides": [1, 1, 1], "padding": "valid", "data_format": "channels_last", "dilation_rate": [1, 1, 1], "groups": 1, "activation": "linear", "use_bias": false, "kernel_initializer": {"class_name": "GlorotUniform", "config": {"seed": null}}, "bias_initializer": {"class_name": "Zeros", "config": {}}, "kernel_regularizer": null, "bias_regularizer": null, "activity_regularizer": null, "kernel_constraint": null, "bias_constraint": null}, "name": "conv3d_216", "inbound_nodes": [[["sequential_145", 1, 0, {}]]]}, {"class_name": "Conv3D", "config": {"name": "conv3d_163", "trainable": true, "dtype": "float32", "filters": 256, "kernel_size": [1, 1, 1], "strides": [1, 1, 1], "padding": "valid", "data_format": "channels_last", "dilation_rate": [1, 1, 1], "groups": 1, "activation": "linear", "use_bias": false, "kernel_initializer": {"class_name": "GlorotUniform", "config": {"seed": null}}, "bias_initializer": {"class_name": "Zeros", "config": {}}, "kernel_regularizer": null, "bias_regularizer": null, "activity_regularizer": null, "kernel_constraint": null, "bias_constraint": null}, "name": "conv3d_163", "inbound_nodes": [[["sequential_108", 1, 0, {}]]]}, {"class_name": "BatchNormalization", "config": {"name": "batch_normalization_208", "trainable": true, "dtype": "float32", "axis": [4], "momentum": 0.99, "epsilon": 0.001, "center": true, "scale": true, "beta_initializer": {"class_name": "Zeros", "config": {}}, "gamma_initializer": {"class_name": "Ones", "config": {}}, "moving_mean_initializer": {"class_name": "Zeros", "config": {}}, "moving_variance_initializer": {"class_name": "Ones", "config": {}}, "beta_regularizer": null, "gamma_regularizer": null, "beta_constraint": null, "gamma_constraint": null}, "name": "batch_normalization_208", "inbound_nodes": [[["conv3d_216", 0, 0, {}]]]}, {"class_name": "BatchNormalization", "config": {"name": "batch_normalization_155", "trainable": true, "dtype": "float32", "axis": [4], "momentum": 0.99, "epsilon": 0.001, "center": true, "scale": true, "beta_initializer": {"class_name": "Zeros", "config": {}}, "gamma_initializer": {"class_name": "Ones", "config": {}}, "moving_mean_initializer": {"class_name": "Zeros", "config": {}}, "moving_variance_initializer": {"class_name": "Ones", "config": {}}, "beta_regularizer": null, "gamma_regularizer": null, "beta_constraint": null, "gamma_constraint": null}, "name": "batch_normalization_155", "inbound_nodes": [[["conv3d_163", 0, 0, {}]]]}, {"class_name": "Add", "config": {"name": "add_62", "trainable": true, "dtype": "float32"}, "name": "add_62", "inbound_nodes": [[["batch_normalization_208", 0, 0, {}], ["re_lu_189", 0, 0, {}]]]}, {"class_name": "Add", "config": {"name": "add_46", "trainable": true, "dtype": "float32"}, "name": "add_46", "inbound_nodes": [[["batch_normalization_155", 0, 0, {}], ["re_lu_140", 0, 0, {}]]]}, {"class_name": "ReLU", "config": {"name": "re_lu_192", "trainable": true, "dtype": "float32", "max_value": null, "negative_slope": 0.0, "threshold": 0.0}, "name": "re_lu_192", "inbound_nodes": [[["add_62", 0, 0, {}]]]}, {"class_name": "ReLU", "config": {"name": "re_lu_143", "trainable": true, "dtype": "float32", "max_value": null, "negative_slope": 0.0, "threshold": 0.0}, "name": "re_lu_143", "inbound_nodes": [[["add_46", 0, 0, {}]]]}, {"class_name": "Sequential", "config": {"name": "sequential_146", "layers": [{"class_name": "InputLayer", "config": {"batch_input_shape": [null, null, null, null, 2048], "dtype": "float32", "sparse": false, "ragged": false, "name": "conv3d_217_input"}}, {"class_name": "Conv3D", "config": {"name": "conv3d_217", "trainable": true, "dtype": "float32", "filters": 512, "kernel_size": [1, 1, 1], "strides": [1, 1, 1], "padding": "same", "data_format": "channels_last", "dilation_rate": [1, 1, 1], "groups": 1, "activation": "linear", "use_bias": false, "kernel_initializer": {"class_name": "GlorotUniform", "config": {"seed": null}}, "bias_initializer": {"class_name": "Zeros", "config": {}}, "kernel_regularizer": null, "bias_regularizer": null, "activity_regularizer": null, "kernel_constraint": null, "bias_constraint": null}}, {"class_name": "BatchNormalization", "config": {"name": "batch_normalization_209", "trainable": true, "dtype": "float32", "axis": [4], "momentum": 0.99, "epsilon": 0.001, "center": true, "scale": true, "beta_initializer": {"class_name": "Zeros", "config": {}}, "gamma_initializer": {"class_name": "Ones", "config": {}}, "moving_mean_initializer": {"class_name": "Zeros", "config": {}}, "moving_variance_initializer": {"class_name": "Ones", "config": {}}, "beta_regularizer": null, "gamma_regularizer": null, "beta_constraint": null, "gamma_constraint": null}}, {"class_name": "ReLU", "config": {"name": "re_lu_193", "trainable": true, "dtype": "float32", "max_value": null, "negative_slope": 0.0, "threshold": 0.0}}]}, "name": "sequential_146", "inbound_nodes": [[["re_lu_192", 0, 0, {}]]]}, {"class_name": "Sequential", "config": {"name": "sequential_109", "layers": [{"class_name": "InputLayer", "config": {"batch_input_shape": [null, null, null, null, 256], "dtype": "float32", "sparse": false, "ragged": false, "name": "conv3d_164_input"}}, {"class_name": "Conv3D", "config": {"name": "conv3d_164", "trainable": true, "dtype": "float32", "filters": 64, "kernel_size": [3, 1, 1], "strides": [1, 1, 1], "padding": "same", "data_format": "channels_last", "dilation_rate": [1, 1, 1], "groups": 1, "activation": "linear", "use_bias": false, "kernel_initializer": {"class_name": "GlorotUniform", "config": {"seed": null}}, "bias_initializer": {"class_name": "Zeros", "config": {}}, "kernel_regularizer": null, "bias_regularizer": null, "activity_regularizer": null, "kernel_constraint": null, "bias_constraint": null}}, {"class_name": "BatchNormalization", "config": {"name": "batch_normalization_156", "trainable": true, "dtype": "float32", "axis": [4], "momentum": 0.99, "epsilon": 0.001, "center": true, "scale": true, "beta_initializer": {"class_name": "Zeros", "config": {}}, "gamma_initializer": {"class_name": "Ones", "config": {}}, "moving_mean_initializer": {"class_name": "Zeros", "config": {}}, "moving_variance_initializer": {"class_name": "Ones", "config": {}}, "beta_regularizer": null, "gamma_regularizer": null, "beta_constraint": null, "gamma_constraint": null}}, {"class_name": "ReLU", "config": {"name": "re_lu_144", "trainable": true, "dtype": "float32", "max_value": null, "negative_slope": 0.0, "threshold": 0.0}}]}, "name": "sequential_109", "inbound_nodes": [[["re_lu_143", 0, 0, {}]]]}, {"class_name": "Sequential", "config": {"name": "sequential_147", "layers": [{"class_name": "InputLayer", "config": {"batch_input_shape": [null, null, null, null, 512], "dtype": "float32", "sparse": false, "ragged": false, "name": "conv3d_218_input"}}, {"class_name": "Conv3D", "config": {"name": "conv3d_218", "trainable": true, "dtype": "float32", "filters": 512, "kernel_size": [1, 3, 3], "strides": [1, 1, 1], "padding": "same", "data_format": "channels_last", "dilation_rate": [1, 1, 1], "groups": 1, "activation": "linear", "use_bias": false, "kernel_initializer": {"class_name": "GlorotUniform", "config": {"seed": null}}, "bias_initializer": {"class_name": "Zeros", "config": {}}, "kernel_regularizer": null, "bias_regularizer": null, "activity_regularizer": null, "kernel_constraint": null, "bias_constraint": null}}, {"class_name": "BatchNormalization", "config": {"name": "batch_normalization_210", "trainable": true, "dtype": "float32", "axis": [4], "momentum": 0.99, "epsilon": 0.001, "center": true, "scale": true, "beta_initializer": {"class_name": "Zeros", "config": {}}, "gamma_initializer": {"class_name": "Ones", "config": {}}, "moving_mean_initializer": {"class_name": "Zeros", "config": {}}, "moving_variance_initializer": {"class_name": "Ones", "config": {}}, "beta_regularizer": null, "gamma_regularizer": null, "beta_constraint": null, "gamma_constraint": null}}, {"class_name": "ReLU", "config": {"name": "re_lu_194", "trainable": true, "dtype": "float32", "max_value": null, "negative_slope": 0.0, "threshold": 0.0}}]}, "name": "sequential_147", "inbound_nodes": [[["sequential_146", 1, 0, {}]]]}, {"class_name": "Sequential", "config": {"name": "sequential_110", "layers": [{"class_name": "InputLayer", "config": {"batch_input_shape": [null, null, null, null, 64], "dtype": "float32", "sparse": false, "ragged": false, "name": "conv3d_165_input"}}, {"class_name": "Conv3D", "config": {"name": "conv3d_165", "trainable": true, "dtype": "float32", "filters": 64, "kernel_size": [1, 3, 3], "strides": [1, 1, 1], "padding": "same", "data_format": "channels_last", "dilation_rate": [1, 1, 1], "groups": 1, "activation": "linear", "use_bias": false, "kernel_initializer": {"class_name": "GlorotUniform", "config": {"seed": null}}, "bias_initializer": {"class_name": "Zeros", "config": {}}, "kernel_regularizer": null, "bias_regularizer": null, "activity_regularizer": null, "kernel_constraint": null, "bias_constraint": null}}, {"class_name": "BatchNormalization", "config": {"name": "batch_normalization_157", "trainable": true, "dtype": "float32", "axis": [4], "momentum": 0.99, "epsilon": 0.001, "center": true, "scale": true, "beta_initializer": {"class_name": "Zeros", "config": {}}, "gamma_initializer": {"class_name": "Ones", "config": {}}, "moving_mean_initializer": {"class_name": "Zeros", "config": {}}, "moving_variance_initializer": {"class_name": "Ones", "config": {}}, "beta_regularizer": null, "gamma_regularizer": null, "beta_constraint": null, "gamma_constraint": null}}, {"class_name": "ReLU", "config": {"name": "re_lu_145", "trainable": true, "dtype": "float32", "max_value": null, "negative_slope": 0.0, "threshold": 0.0}}]}, "name": "sequential_110", "inbound_nodes": [[["sequential_109", 1, 0, {}]]]}, {"class_name": "Conv3D", "config": {"name": "conv3d_219", "trainable": true, "dtype": "float32", "filters": 2048, "kernel_size": [1, 1, 1], "strides": [1, 1, 1], "padding": "valid", "data_format": "channels_last", "dilation_rate": [1, 1, 1], "groups": 1, "activation": "linear", "use_bias": false, "kernel_initializer": {"class_name": "GlorotUniform", "config": {"seed": null}}, "bias_initializer": {"class_name": "Zeros", "config": {}}, "kernel_regularizer": null, "bias_regularizer": null, "activity_regularizer": null, "kernel_constraint": null, "bias_constraint": null}, "name": "conv3d_219", "inbound_nodes": [[["sequential_147", 1, 0, {}]]]}, {"class_name": "Conv3D", "config": {"name": "conv3d_166", "trainable": true, "dtype": "float32", "filters": 256, "kernel_size": [1, 1, 1], "strides": [1, 1, 1], "padding": "valid", "data_format": "channels_last", "dilation_rate": [1, 1, 1], "groups": 1, "activation": "linear", "use_bias": false, "kernel_initializer": {"class_name": "GlorotUniform", "config": {"seed": null}}, "bias_initializer": {"class_name": "Zeros", "config": {}}, "kernel_regularizer": null, "bias_regularizer": null, "activity_regularizer": null, "kernel_constraint": null, "bias_constraint": null}, "name": "conv3d_166", "inbound_nodes": [[["sequential_110", 1, 0, {}]]]}, {"class_name": "BatchNormalization", "config": {"name": "batch_normalization_211", "trainable": true, "dtype": "float32", "axis": [4], "momentum": 0.99, "epsilon": 0.001, "center": true, "scale": true, "beta_initializer": {"class_name": "Zeros", "config": {}}, "gamma_initializer": {"class_name": "Ones", "config": {}}, "moving_mean_initializer": {"class_name": "Zeros", "config": {}}, "moving_variance_initializer": {"class_name": "Ones", "config": {}}, "beta_regularizer": null, "gamma_regularizer": null, "beta_constraint": null, "gamma_constraint": null}, "name": "batch_normalization_211", "inbound_nodes": [[["conv3d_219", 0, 0, {}]]]}, {"class_name": "BatchNormalization", "config": {"name": "batch_normalization_158", "trainable": true, "dtype": "float32", "axis": [4], "momentum": 0.99, "epsilon": 0.001, "center": true, "scale": true, "beta_initializer": {"class_name": "Zeros", "config": {}}, "gamma_initializer": {"class_name": "Ones", "config": {}}, "moving_mean_initializer": {"class_name": "Zeros", "config": {}}, "moving_variance_initializer": {"class_name": "Ones", "config": {}}, "beta_regularizer": null, "gamma_regularizer": null, "beta_constraint": null, "gamma_constraint": null}, "name": "batch_normalization_158", "inbound_nodes": [[["conv3d_166", 0, 0, {}]]]}, {"class_name": "Add", "config": {"name": "add_63", "trainable": true, "dtype": "float32"}, "name": "add_63", "inbound_nodes": [[["batch_normalization_211", 0, 0, {}], ["re_lu_192", 0, 0, {}]]]}, {"class_name": "Add", "config": {"name": "add_47", "trainable": true, "dtype": "float32"}, "name": "add_47", "inbound_nodes": [[["batch_normalization_158", 0, 0, {}], ["re_lu_143", 0, 0, {}]]]}, {"class_name": "ReLU", "config": {"name": "re_lu_195", "trainable": true, "dtype": "float32", "max_value": null, "negative_slope": 0.0, "threshold": 0.0}, "name": "re_lu_195", "inbound_nodes": [[["add_63", 0, 0, {}]]]}, {"class_name": "ReLU", "config": {"name": "re_lu_146", "trainable": true, "dtype": "float32", "max_value": null, "negative_slope": 0.0, "threshold": 0.0}, "name": "re_lu_146", "inbound_nodes": [[["add_47", 0, 0, {}]]]}, {"class_name": "GlobalAveragePooling3D", "config": {"name": "global_average_pooling3d_3", "trainable": true, "dtype": "float32", "data_format": "channels_last", "keepdims": false}, "name": "global_average_pooling3d_3", "inbound_nodes": [[["re_lu_195", 0, 0, {}]]]}, {"class_name": "GlobalAveragePooling3D", "config": {"name": "global_average_pooling3d_2", "trainable": true, "dtype": "float32", "data_format": "channels_last", "keepdims": false}, "name": "global_average_pooling3d_2", "inbound_nodes": [[["re_lu_146", 0, 0, {}]]]}, {"class_name": "Concatenate", "config": {"name": "concatenate_9", "trainable": true, "dtype": "float32", "axis": -1}, "name": "concatenate_9", "inbound_nodes": [[["global_average_pooling3d_3", 0, 0, {}], ["global_average_pooling3d_2", 0, 0, {}]]]}, {"class_name": "Dropout", "config": {"name": "dropout_1", "trainable": true, "dtype": "float32", "rate": 0.5, "noise_shape": null, "seed": null}, "name": "dropout_1", "inbound_nodes": [[["concatenate_9", 0, 0, {}]]]}, {"class_name": "Dense", "config": {"name": "dense_1", "trainable": true, "dtype": "float32", "units": 4, "activation": "softmax", "use_bias": true, "kernel_initializer": {"class_name": "GlorotUniform", "config": {"seed": null}}, "bias_initializer": {"class_name": "Zeros", "config": {}}, "kernel_regularizer": null, "bias_regularizer": null, "activity_regularizer": null, "kernel_constraint": null, "bias_constraint": null}, "name": "dense_1", "inbound_nodes": [[["dropout_1", 0, 0, {}]]]}], "input_layers": [["input_2", 0, 0]], "output_layers": [["dense_1", 0, 0]]}, "keras_version": "2.12.0", "backend": "tensorflow"}